…
I0427 16:47:03.000905  5246 net.cpp:313] The NetState phase (0) differed from the phase (1) specified by a rule in layer data
I0427 16:47:03.001160  5246 net.cpp:49] Initializing net from parameters: 
name: "SoundNet"
state {
  phase: TRAIN
}
layer {
  name: "data"
  type: "HDF5Data"
  top: "amsFeatures"
  include {
    phase: TRAIN
  }
  hdf5_data_param {
    source: "/home/pierre/masterarbeit/twoears/avasm/hdf5/avasm_data_train.txt"
    batch_size: 16
  }
}
layer {
  name: "data"
  type: "HDF5Data"
  top: "label"
  include {
    phase: TRAIN
  }
  hdf5_data_param {
    source: "/home/pierre/masterarbeit/twoears/avasm/hdf5/avasm_data_train.txt"
    batch_size: 16
  }
}
layer {
  name: "conv1"
  type: "Convolution"
  bottom: "amsFeatures"
  top: "conv1"
  param {
    lr_mult: 1
    decay_mult: 1
  }
  param {
    lr_mult: 2
    decay_mult: 0
  }
  convolution_param {
    num_output: 75
    stride: 2
    weight_filler {
      type: "xavier"
    }
    bias_filler {
      type: "constant"
    }
    kernel_h: 9
    kernel_w: 9
  }
}
layer {
  name: "relu1"
  type: "ReLU"
  bottom: "conv1"
  top: "conv1"
}
layer {
  name: "pool1"
  type: "Pooling"
  bottom: "conv1"
  top: "pool1"
  pooling_param {
    pool: MAX
    kernel_size: 2
    stride: 2
  }
}
layer {
  name: "conv2"
  type: "Convolution"
  bottom: "pool1"
  top: "conv2"
  param {
    lr_mult: 1
    decay_mult: 1
  }
  param {
    lr_mult: 2
    decay_mult: 0
  }
  convolution_param {
    num_output: 64
    stride: 1
    weight_filler {
      type: "xavier"
    }
    bias_filler {
      type: "constant"
    }
    kernel_h: 3
    kernel_w: 3
  }
}
layer {
  name: "pool2"
  type: "Pooling"
  bottom: "conv2"
  top: "pool2"
  pooling_param {
    pool: MAX
    kernel_size: 2
    stride: 2
  }
}
layer {
  name: "relu2"
  type: "ReLU"
  bottom: "pool2"
  top: "pool2"
}
layer {
  name: "ip2"
  type: "InnerProduct"
  bottom: "pool2"
  top: "ip2"
  param {
    lr_mult: 1
  }
  param {
    lr_mult: 2
  }
  inner_product_param {
    num_output: 128
    weight_filler {
      type: "xavier"
    }
    bias_filler {
      type: "constant"
    }
  }
}
layer {
  name: "relu2"
  type: "ReLU"
  bottom: "ip2"
  top: "ip2"
}
layer {
  name: "dropip2"
  type: "Dropout"
  bottom: "ip2"
  top: "ip2"
  dropout_param {
    dropout_ratio: 0.5
  }
}
layer {
  name: "score"
  type: "InnerProduct"
  bottom: "ip2"
  top: "score"
  param {
    lr_mult: 1
  }
  param {
    lr_mult: 2
  }
  inner_product_param {
    num_output: 2
    weight_filler {
      type: "xavier"
    }
    bias_filler {
      type: "constant"
    }
  }
}
layer {
  name: "loss"
  type: "SigmoidCrossEntropyLoss"
  bottom: "score"
  bottom: "label"
  top: "loss"
}
I0427 16:47:03.001245  5246 layer_factory.hpp:77] Creating layer data
I0427 16:47:03.001262  5246 net.cpp:91] Creating Layer data
I0427 16:47:03.001274  5246 net.cpp:399] data -> amsFeatures
I0427 16:47:03.001303  5246 hdf5_data_layer.cpp:79] Loading list of HDF5 filenames from: /home/pierre/masterarbeit/twoears/avasm/hdf5/avasm_data_train.txt
I0427 16:47:03.001696  5246 hdf5_data_layer.cpp:93] Number of HDF5 files: 1
I0427 16:47:03.002637  5246 hdf5.cpp:32] Datatype class: H5T_FLOAT
I0427 16:47:03.059432  5246 net.cpp:141] Setting up data
I0427 16:47:03.059478  5246 net.cpp:148] Top shape: 16 1 513 105 (861840)
I0427 16:47:03.059485  5246 net.cpp:156] Memory required for data: 3447360
I0427 16:47:03.059500  5246 layer_factory.hpp:77] Creating layer data
I0427 16:47:03.059523  5246 net.cpp:91] Creating Layer data
I0427 16:47:03.059532  5246 net.cpp:399] data -> label
I0427 16:47:03.059553  5246 hdf5_data_layer.cpp:79] Loading list of HDF5 filenames from: /home/pierre/masterarbeit/twoears/avasm/hdf5/avasm_data_train.txt
I0427 16:47:03.059785  5246 hdf5_data_layer.cpp:93] Number of HDF5 files: 1
I0427 16:47:03.061401  5246 net.cpp:141] Setting up data
I0427 16:47:03.061421  5246 net.cpp:148] Top shape: 16 2 (32)
I0427 16:47:03.061427  5246 net.cpp:156] Memory required for data: 3447488
I0427 16:47:03.061434  5246 layer_factory.hpp:77] Creating layer conv1
I0427 16:47:03.061466  5246 net.cpp:91] Creating Layer conv1
I0427 16:47:03.061473  5246 net.cpp:425] conv1 <- amsFeatures
I0427 16:47:03.061485  5246 net.cpp:399] conv1 -> conv1
I0427 16:47:03.063216  5246 net.cpp:141] Setting up conv1
I0427 16:47:03.063235  5246 net.cpp:148] Top shape: 16 75 253 49 (14876400)
I0427 16:47:03.063241  5246 net.cpp:156] Memory required for data: 62953088
I0427 16:47:03.063267  5246 layer_factory.hpp:77] Creating layer relu1
I0427 16:47:03.063278  5246 net.cpp:91] Creating Layer relu1
I0427 16:47:03.063285  5246 net.cpp:425] relu1 <- conv1
I0427 16:47:03.063293  5246 net.cpp:386] relu1 -> conv1 (in-place)
I0427 16:47:03.063308  5246 net.cpp:141] Setting up relu1
I0427 16:47:03.063315  5246 net.cpp:148] Top shape: 16 75 253 49 (14876400)
I0427 16:47:03.063321  5246 net.cpp:156] Memory required for data: 122458688
I0427 16:47:03.063328  5246 layer_factory.hpp:77] Creating layer pool1
I0427 16:47:03.063338  5246 net.cpp:91] Creating Layer pool1
I0427 16:47:03.063344  5246 net.cpp:425] pool1 <- conv1
I0427 16:47:03.063354  5246 net.cpp:399] pool1 -> pool1
I0427 16:47:03.063412  5246 net.cpp:141] Setting up pool1
I0427 16:47:03.063423  5246 net.cpp:148] Top shape: 16 75 127 25 (3810000)
I0427 16:47:03.063429  5246 net.cpp:156] Memory required for data: 137698688
I0427 16:47:03.063436  5246 layer_factory.hpp:77] Creating layer conv2
I0427 16:47:03.063449  5246 net.cpp:91] Creating Layer conv2
I0427 16:47:03.063455  5246 net.cpp:425] conv2 <- pool1
I0427 16:47:03.063465  5246 net.cpp:399] conv2 -> conv2
I0427 16:47:03.065796  5246 net.cpp:141] Setting up conv2
I0427 16:47:03.065821  5246 net.cpp:148] Top shape: 16 64 125 23 (2944000)
I0427 16:47:03.065826  5246 net.cpp:156] Memory required for data: 149474688
I0427 16:47:03.065841  5246 layer_factory.hpp:77] Creating layer pool2
I0427 16:47:03.065855  5246 net.cpp:91] Creating Layer pool2
I0427 16:47:03.065865  5246 net.cpp:425] pool2 <- conv2
I0427 16:47:03.065876  5246 net.cpp:399] pool2 -> pool2
I0427 16:47:03.065948  5246 net.cpp:141] Setting up pool2
I0427 16:47:03.065961  5246 net.cpp:148] Top shape: 16 64 63 12 (774144)
I0427 16:47:03.065968  5246 net.cpp:156] Memory required for data: 152571264
I0427 16:47:03.065974  5246 layer_factory.hpp:77] Creating layer relu2
I0427 16:47:03.065984  5246 net.cpp:91] Creating Layer relu2
I0427 16:47:03.065989  5246 net.cpp:425] relu2 <- pool2
I0427 16:47:03.065999  5246 net.cpp:386] relu2 -> pool2 (in-place)
I0427 16:47:03.066009  5246 net.cpp:141] Setting up relu2
I0427 16:47:03.066017  5246 net.cpp:148] Top shape: 16 64 63 12 (774144)
I0427 16:47:03.066023  5246 net.cpp:156] Memory required for data: 155667840
I0427 16:47:03.066030  5246 layer_factory.hpp:77] Creating layer ip2
I0427 16:47:03.066052  5246 net.cpp:91] Creating Layer ip2
I0427 16:47:03.066058  5246 net.cpp:425] ip2 <- pool2
I0427 16:47:03.066069  5246 net.cpp:399] ip2 -> ip2
I0427 16:47:03.144897  5246 net.cpp:141] Setting up ip2
I0427 16:47:03.144933  5246 net.cpp:148] Top shape: 16 128 (2048)
I0427 16:47:03.144940  5246 net.cpp:156] Memory required for data: 155676032
I0427 16:47:03.144964  5246 layer_factory.hpp:77] Creating layer relu2
I0427 16:47:03.144979  5246 net.cpp:91] Creating Layer relu2
I0427 16:47:03.144986  5246 net.cpp:425] relu2 <- ip2
I0427 16:47:03.144997  5246 net.cpp:386] relu2 -> ip2 (in-place)
I0427 16:47:03.145015  5246 net.cpp:141] Setting up relu2
I0427 16:47:03.145023  5246 net.cpp:148] Top shape: 16 128 (2048)
I0427 16:47:03.145030  5246 net.cpp:156] Memory required for data: 155684224
I0427 16:47:03.145035  5246 layer_factory.hpp:77] Creating layer dropip2
I0427 16:47:03.145056  5246 net.cpp:91] Creating Layer dropip2
I0427 16:47:03.145062  5246 net.cpp:425] dropip2 <- ip2
I0427 16:47:03.145071  5246 net.cpp:386] dropip2 -> ip2 (in-place)
I0427 16:47:03.145115  5246 net.cpp:141] Setting up dropip2
I0427 16:47:03.145126  5246 net.cpp:148] Top shape: 16 128 (2048)
I0427 16:47:03.145133  5246 net.cpp:156] Memory required for data: 155692416
I0427 16:47:03.145138  5246 layer_factory.hpp:77] Creating layer score
I0427 16:47:03.145153  5246 net.cpp:91] Creating Layer score
I0427 16:47:03.145159  5246 net.cpp:425] score <- ip2
I0427 16:47:03.145169  5246 net.cpp:399] score -> score
I0427 16:47:03.145321  5246 net.cpp:141] Setting up score
I0427 16:47:03.145334  5246 net.cpp:148] Top shape: 16 2 (32)
I0427 16:47:03.145339  5246 net.cpp:156] Memory required for data: 155692544
I0427 16:47:03.145351  5246 layer_factory.hpp:77] Creating layer loss
I0427 16:47:03.145369  5246 net.cpp:91] Creating Layer loss
I0427 16:47:03.145375  5246 net.cpp:425] loss <- score
I0427 16:47:03.145383  5246 net.cpp:425] loss <- label
I0427 16:47:03.145392  5246 net.cpp:399] loss -> loss
I0427 16:47:03.145462  5246 net.cpp:141] Setting up loss
…
