…
I0428 14:41:38.064661  5066 net.cpp:49] Initializing net from parameters: 
I0428 14:41:38.064720  5066 layer_factory.hpp:77] Creating layer data
I0428 14:41:38.064736  5066 net.cpp:91] Creating Layer data
I0428 14:41:38.064744  5066 net.cpp:399] data -> amsFeatures
I0428 14:41:38.064766  5066 hdf5_data_layer.cpp:79] Loading list of HDF5 filenames from: /home/pierre/masterarbeit/twoears/avasm/hdf5/avasm_data_train.txt
I0428 14:41:38.065147  5066 hdf5_data_layer.cpp:93] Number of HDF5 files: 1
I0428 14:41:38.065942  5066 hdf5.cpp:32] Datatype class: H5T_FLOAT
I0428 14:41:38.128595  5066 net.cpp:141] Setting up data
I0428 14:41:38.128640  5066 net.cpp:148] Top shape: 16 1 513 105 (861840)
I0428 14:41:38.128648  5066 net.cpp:156] Memory required for data: 3447360
I0428 14:41:38.128662  5066 layer_factory.hpp:77] Creating layer data
I0428 14:41:38.128684  5066 net.cpp:91] Creating Layer data
I0428 14:41:38.128692  5066 net.cpp:399] data -> label
I0428 14:41:38.128712  5066 hdf5_data_layer.cpp:79] Loading list of HDF5 filenames from: /home/pierre/masterarbeit/twoears/avasm/hdf5/avasm_data_train.txt
I0428 14:41:38.128940  5066 hdf5_data_layer.cpp:93] Number of HDF5 files: 1
I0428 14:41:38.130779  5066 net.cpp:141] Setting up data
I0428 14:41:38.130798  5066 net.cpp:148] Top shape: 16 2 (32)
I0428 14:41:38.130805  5066 net.cpp:156] Memory required for data: 3447488
I0428 14:41:38.130812  5066 layer_factory.hpp:77] Creating layer conv1
I0428 14:41:38.130839  5066 net.cpp:91] Creating Layer conv1
I0428 14:41:38.130847  5066 net.cpp:425] conv1 <- amsFeatures
I0428 14:41:38.130859  5066 net.cpp:399] conv1 -> conv1
I0428 14:41:38.132807  5066 net.cpp:141] Setting up conv1
I0428 14:41:38.132833  5066 net.cpp:148] Top shape: 16 75 253 49 (14876400)
I0428 14:41:38.132840  5066 net.cpp:156] Memory required for data: 62953088
I0428 14:41:38.132870  5066 layer_factory.hpp:77] Creating layer relu1
I0428 14:41:38.132884  5066 net.cpp:91] Creating Layer relu1
I0428 14:41:38.132891  5066 net.cpp:425] relu1 <- conv1
I0428 14:41:38.132900  5066 net.cpp:386] relu1 -> conv1 (in-place)
I0428 14:41:38.132915  5066 net.cpp:141] Setting up relu1
I0428 14:41:38.132925  5066 net.cpp:148] Top shape: 16 75 253 49 (14876400)
I0428 14:41:38.132930  5066 net.cpp:156] Memory required for data: 122458688
I0428 14:41:38.132936  5066 layer_factory.hpp:77] Creating layer pool1
I0428 14:41:38.132948  5066 net.cpp:91] Creating Layer pool1
I0428 14:41:38.132954  5066 net.cpp:425] pool1 <- conv1
I0428 14:41:38.132963  5066 net.cpp:399] pool1 -> pool1
I0428 14:41:38.133028  5066 net.cpp:141] Setting up pool1
I0428 14:41:38.133039  5066 net.cpp:148] Top shape: 16 75 127 25 (3810000)
I0428 14:41:38.133044  5066 net.cpp:156] Memory required for data: 137698688
I0428 14:41:38.133051  5066 layer_factory.hpp:77] Creating layer conv2
I0428 14:41:38.133065  5066 net.cpp:91] Creating Layer conv2
I0428 14:41:38.133071  5066 net.cpp:425] conv2 <- pool1
I0428 14:41:38.133082  5066 net.cpp:399] conv2 -> conv2
I0428 14:41:38.135467  5066 net.cpp:141] Setting up conv2
I0428 14:41:38.135493  5066 net.cpp:148] Top shape: 16 64 125 23 (2944000)
I0428 14:41:38.135500  5066 net.cpp:156] Memory required for data: 149474688
I0428 14:41:38.135520  5066 layer_factory.hpp:77] Creating layer pool2
I0428 14:41:38.135537  5066 net.cpp:91] Creating Layer pool2
I0428 14:41:38.135550  5066 net.cpp:425] pool2 <- conv2
I0428 14:41:38.135560  5066 net.cpp:399] pool2 -> pool2
I0428 14:41:38.135629  5066 net.cpp:141] Setting up pool2
I0428 14:41:38.135644  5066 net.cpp:148] Top shape: 16 64 63 12 (774144)
I0428 14:41:38.135651  5066 net.cpp:156] Memory required for data: 152571264
I0428 14:41:38.135658  5066 layer_factory.hpp:77] Creating layer relu2
I0428 14:41:38.135668  5066 net.cpp:91] Creating Layer relu2
I0428 14:41:38.135675  5066 net.cpp:425] relu2 <- pool2
I0428 14:41:38.135685  5066 net.cpp:386] relu2 -> pool2 (in-place)
I0428 14:41:38.135697  5066 net.cpp:141] Setting up relu2
I0428 14:41:38.135706  5066 net.cpp:148] Top shape: 16 64 63 12 (774144)
I0428 14:41:38.135712  5066 net.cpp:156] Memory required for data: 155667840
I0428 14:41:38.135718  5066 layer_factory.hpp:77] Creating layer ip2
I0428 14:41:38.135738  5066 net.cpp:91] Creating Layer ip2
I0428 14:41:38.135745  5066 net.cpp:425] ip2 <- pool2
I0428 14:41:38.135756  5066 net.cpp:399] ip2 -> ip2
I0428 14:41:38.221640  5066 net.cpp:141] Setting up ip2
I0428 14:41:38.221683  5066 net.cpp:148] Top shape: 16 128 (2048)
I0428 14:41:38.221689  5066 net.cpp:156] Memory required for data: 155676032
I0428 14:41:38.221714  5066 layer_factory.hpp:77] Creating layer relu2
I0428 14:41:38.221730  5066 net.cpp:91] Creating Layer relu2
I0428 14:41:38.221738  5066 net.cpp:425] relu2 <- ip2
I0428 14:41:38.221750  5066 net.cpp:386] relu2 -> ip2 (in-place)
I0428 14:41:38.221771  5066 net.cpp:141] Setting up relu2
I0428 14:41:38.221778  5066 net.cpp:148] Top shape: 16 128 (2048)
I0428 14:41:38.221784  5066 net.cpp:156] Memory required for data: 155684224
I0428 14:41:38.221791  5066 layer_factory.hpp:77] Creating layer dropip2
I0428 14:41:38.221812  5066 net.cpp:91] Creating Layer dropip2
I0428 14:41:38.221818  5066 net.cpp:425] dropip2 <- ip2
I0428 14:41:38.221828  5066 net.cpp:386] dropip2 -> ip2 (in-place)
I0428 14:41:38.221871  5066 net.cpp:141] Setting up dropip2
I0428 14:41:38.221882  5066 net.cpp:148] Top shape: 16 128 (2048)
I0428 14:41:38.221889  5066 net.cpp:156] Memory required for data: 155692416
I0428 14:41:38.221894  5066 layer_factory.hpp:77] Creating layer score
I0428 14:41:38.221909  5066 net.cpp:91] Creating Layer score
I0428 14:41:38.221915  5066 net.cpp:425] score <- ip2
I0428 14:41:38.221926  5066 net.cpp:399] score -> score
I0428 14:41:38.222084  5066 net.cpp:141] Setting up score
I0428 14:41:38.222097  5066 net.cpp:148] Top shape: 16 2 (32)
I0428 14:41:38.222103  5066 net.cpp:156] Memory required for data: 155692544
I0428 14:41:38.222115  5066 layer_factory.hpp:77] Creating layer loss
I0428 14:41:38.222131  5066 net.cpp:91] Creating Layer loss
I0428 14:41:38.222137  5066 net.cpp:425] loss <- score
I0428 14:41:38.222146  5066 net.cpp:425] loss <- label
I0428 14:41:38.222154  5066 net.cpp:399] loss -> loss
I0428 14:41:38.222221  5066 net.cpp:141] Setting up loss
…
