…
I0428 14:30:05.588104 30526 net.cpp:49] Initializing net from parameters: 
I0428 14:30:05.588207 30526 layer_factory.hpp:77] Creating layer data
I0428 14:30:05.588229 30526 net.cpp:91] Creating Layer data
I0428 14:30:05.588240 30526 net.cpp:399] data -> amsFeatures
I0428 14:30:05.588263 30526 hdf5_data_layer.cpp:79] Loading list of HDF5 filenames from: /home/pierre/masterarbeit/twoears/avasm/hdf5/avasm_data_train.txt
I0428 14:30:05.588714 30526 hdf5_data_layer.cpp:93] Number of HDF5 files: 1
I0428 14:30:05.589711 30526 hdf5.cpp:32] Datatype class: H5T_FLOAT
I0428 14:30:05.649405 30526 net.cpp:141] Setting up data
I0428 14:30:05.649449 30526 net.cpp:148] Top shape: 16 1 513 105 (861840)
I0428 14:30:05.649456 30526 net.cpp:156] Memory required for data: 3447360
I0428 14:30:05.649469 30526 layer_factory.hpp:77] Creating layer data
I0428 14:30:05.649488 30526 net.cpp:91] Creating Layer data
I0428 14:30:05.649497 30526 net.cpp:399] data -> label
I0428 14:30:05.649514 30526 hdf5_data_layer.cpp:79] Loading list of HDF5 filenames from: /home/pierre/masterarbeit/twoears/avasm/hdf5/avasm_data_train.txt
I0428 14:30:05.649780 30526 hdf5_data_layer.cpp:93] Number of HDF5 files: 1
I0428 14:30:05.651582 30526 net.cpp:141] Setting up data
I0428 14:30:05.651603 30526 net.cpp:148] Top shape: 16 2 (32)
I0428 14:30:05.651609 30526 net.cpp:156] Memory required for data: 3447488
I0428 14:30:05.651618 30526 layer_factory.hpp:77] Creating layer conv1
I0428 14:30:05.651641 30526 net.cpp:91] Creating Layer conv1
I0428 14:30:05.651653 30526 net.cpp:425] conv1 <- amsFeatures
I0428 14:30:05.651666 30526 net.cpp:399] conv1 -> conv1
I0428 14:30:05.653623 30526 net.cpp:141] Setting up conv1
I0428 14:30:05.653645 30526 net.cpp:148] Top shape: 16 75 253 49 (14876400)
I0428 14:30:05.653651 30526 net.cpp:156] Memory required for data: 62953088
I0428 14:30:05.653679 30526 layer_factory.hpp:77] Creating layer relu1
I0428 14:30:05.653693 30526 net.cpp:91] Creating Layer relu1
I0428 14:30:05.653700 30526 net.cpp:425] relu1 <- conv1
I0428 14:30:05.653710 30526 net.cpp:386] relu1 -> conv1 (in-place)
I0428 14:30:05.653723 30526 net.cpp:141] Setting up relu1
I0428 14:30:05.653733 30526 net.cpp:148] Top shape: 16 75 253 49 (14876400)
I0428 14:30:05.653738 30526 net.cpp:156] Memory required for data: 122458688
I0428 14:30:05.653743 30526 layer_factory.hpp:77] Creating layer pool1
I0428 14:30:05.653753 30526 net.cpp:91] Creating Layer pool1
I0428 14:30:05.653759 30526 net.cpp:425] pool1 <- conv1
I0428 14:30:05.653767 30526 net.cpp:399] pool1 -> pool1
I0428 14:30:05.653827 30526 net.cpp:141] Setting up pool1
I0428 14:30:05.653841 30526 net.cpp:148] Top shape: 16 75 127 25 (3810000)
I0428 14:30:05.653846 30526 net.cpp:156] Memory required for data: 137698688
I0428 14:30:05.653852 30526 layer_factory.hpp:77] Creating layer conv2
I0428 14:30:05.653867 30526 net.cpp:91] Creating Layer conv2
I0428 14:30:05.653875 30526 net.cpp:425] conv2 <- pool1
I0428 14:30:05.653887 30526 net.cpp:399] conv2 -> conv2
I0428 14:30:05.656278 30526 net.cpp:141] Setting up conv2
I0428 14:30:05.656299 30526 net.cpp:148] Top shape: 16 64 125 23 (2944000)
I0428 14:30:05.656306 30526 net.cpp:156] Memory required for data: 149474688
I0428 14:30:05.656322 30526 layer_factory.hpp:77] Creating layer pool2
I0428 14:30:05.656333 30526 net.cpp:91] Creating Layer pool2
I0428 14:30:05.656340 30526 net.cpp:425] pool2 <- conv2
I0428 14:30:05.656350 30526 net.cpp:399] pool2 -> pool2
I0428 14:30:05.656409 30526 net.cpp:141] Setting up pool2
I0428 14:30:05.656419 30526 net.cpp:148] Top shape: 16 64 63 12 (774144)
I0428 14:30:05.656424 30526 net.cpp:156] Memory required for data: 152571264
I0428 14:30:05.656431 30526 layer_factory.hpp:77] Creating layer relu2
I0428 14:30:05.656440 30526 net.cpp:91] Creating Layer relu2
I0428 14:30:05.656445 30526 net.cpp:425] relu2 <- pool2
I0428 14:30:05.656455 30526 net.cpp:386] relu2 -> pool2 (in-place)
I0428 14:30:05.656463 30526 net.cpp:141] Setting up relu2
I0428 14:30:05.656472 30526 net.cpp:148] Top shape: 16 64 63 12 (774144)
I0428 14:30:05.656477 30526 net.cpp:156] Memory required for data: 155667840
I0428 14:30:05.656483 30526 layer_factory.hpp:77] Creating layer ip2
I0428 14:30:05.656502 30526 net.cpp:91] Creating Layer ip2
I0428 14:30:05.656507 30526 net.cpp:425] ip2 <- pool2
I0428 14:30:05.656517 30526 net.cpp:399] ip2 -> ip2
I0428 14:30:05.747376 30526 net.cpp:141] Setting up ip2
I0428 14:30:05.747416 30526 net.cpp:148] Top shape: 16 128 (2048)
I0428 14:30:05.747422 30526 net.cpp:156] Memory required for data: 155676032
I0428 14:30:05.747447 30526 layer_factory.hpp:77] Creating layer relu2
I0428 14:30:05.747462 30526 net.cpp:91] Creating Layer relu2
I0428 14:30:05.747469 30526 net.cpp:425] relu2 <- ip2
I0428 14:30:05.747481 30526 net.cpp:386] relu2 -> ip2 (in-place)
I0428 14:30:05.747499 30526 net.cpp:141] Setting up relu2
I0428 14:30:05.747509 30526 net.cpp:148] Top shape: 16 128 (2048)
I0428 14:30:05.747514 30526 net.cpp:156] Memory required for data: 155684224
I0428 14:30:05.747520 30526 layer_factory.hpp:77] Creating layer dropip2
I0428 14:30:05.747539 30526 net.cpp:91] Creating Layer dropip2
I0428 14:30:05.747545 30526 net.cpp:425] dropip2 <- ip2
I0428 14:30:05.747555 30526 net.cpp:386] dropip2 -> ip2 (in-place)
I0428 14:30:05.747598 30526 net.cpp:141] Setting up dropip2
I0428 14:30:05.747609 30526 net.cpp:148] Top shape: 16 128 (2048)
I0428 14:30:05.747616 30526 net.cpp:156] Memory required for data: 155692416
I0428 14:30:05.747622 30526 layer_factory.hpp:77] Creating layer score
I0428 14:30:05.747634 30526 net.cpp:91] Creating Layer score
I0428 14:30:05.747642 30526 net.cpp:425] score <- ip2
I0428 14:30:05.747651 30526 net.cpp:399] score -> score
I0428 14:30:05.747809 30526 net.cpp:141] Setting up score
I0428 14:30:05.747824 30526 net.cpp:148] Top shape: 16 2 (32)
I0428 14:30:05.747831 30526 net.cpp:156] Memory required for data: 155692544
I0428 14:30:05.747844 30526 layer_factory.hpp:77] Creating layer loss
I0428 14:30:05.747864 30526 net.cpp:91] Creating Layer loss
I0428 14:30:05.747871 30526 net.cpp:425] loss <- score
I0428 14:30:05.747880 30526 net.cpp:425] loss <- label
I0428 14:30:05.747892 30526 net.cpp:399] loss -> loss
I0428 14:30:05.747967 30526 net.cpp:141] Setting up loss
…
