…
I0428 15:25:34.000011 31133 net.cpp:49] Initializing net from parameters: 
I0428 15:25:34.000118 31133 layer_factory.hpp:77] Creating layer data
I0428 15:25:34.000139 31133 net.cpp:91] Creating Layer data
I0428 15:25:34.000150 31133 net.cpp:399] data -> amsFeatures
I0428 15:25:34.000174 31133 hdf5_data_layer.cpp:79] Loading list of HDF5 filenames from: /home/pierre/masterarbeit/twoears/avasm/hdf5/avasm_data_train.txt
I0428 15:25:34.000641 31133 hdf5_data_layer.cpp:93] Number of HDF5 files: 1
I0428 15:25:34.001670 31133 hdf5.cpp:32] Datatype class: H5T_FLOAT
I0428 15:25:34.056432 31133 net.cpp:141] Setting up data
I0428 15:25:34.056471 31133 net.cpp:148] Top shape: 16 1 513 105 (861840)
I0428 15:25:34.056476 31133 net.cpp:156] Memory required for data: 3447360
I0428 15:25:34.056485 31133 layer_factory.hpp:77] Creating layer data
I0428 15:25:34.056501 31133 net.cpp:91] Creating Layer data
I0428 15:25:34.056507 31133 net.cpp:399] data -> label
I0428 15:25:34.056522 31133 hdf5_data_layer.cpp:79] Loading list of HDF5 filenames from: /home/pierre/masterarbeit/twoears/avasm/hdf5/avasm_data_train.txt
I0428 15:25:34.056726 31133 hdf5_data_layer.cpp:93] Number of HDF5 files: 1
I0428 15:25:34.058173 31133 net.cpp:141] Setting up data
I0428 15:25:34.058190 31133 net.cpp:148] Top shape: 16 2 (32)
I0428 15:25:34.058194 31133 net.cpp:156] Memory required for data: 3447488
I0428 15:25:34.058198 31133 layer_factory.hpp:77] Creating layer conv1
I0428 15:25:34.058218 31133 net.cpp:91] Creating Layer conv1
I0428 15:25:34.058223 31133 net.cpp:425] conv1 <- amsFeatures
I0428 15:25:34.058231 31133 net.cpp:399] conv1 -> conv1
I0428 15:25:34.059454 31133 net.cpp:141] Setting up conv1
I0428 15:25:34.059468 31133 net.cpp:148] Top shape: 16 75 253 49 (14876400)
I0428 15:25:34.059473 31133 net.cpp:156] Memory required for data: 62953088
I0428 15:25:34.059490 31133 layer_factory.hpp:77] Creating layer relu1
I0428 15:25:34.059499 31133 net.cpp:91] Creating Layer relu1
I0428 15:25:34.059502 31133 net.cpp:425] relu1 <- conv1
I0428 15:25:34.059507 31133 net.cpp:386] relu1 -> conv1 (in-place)
I0428 15:25:34.059516 31133 net.cpp:141] Setting up relu1
I0428 15:25:34.059522 31133 net.cpp:148] Top shape: 16 75 253 49 (14876400)
I0428 15:25:34.059525 31133 net.cpp:156] Memory required for data: 122458688
I0428 15:25:34.059528 31133 layer_factory.hpp:77] Creating layer pool1
I0428 15:25:34.059535 31133 net.cpp:91] Creating Layer pool1
I0428 15:25:34.059538 31133 net.cpp:425] pool1 <- conv1
I0428 15:25:34.059545 31133 net.cpp:399] pool1 -> pool1
I0428 15:25:34.059583 31133 net.cpp:141] Setting up pool1
I0428 15:25:34.059592 31133 net.cpp:148] Top shape: 16 75 127 25 (3810000)
I0428 15:25:34.059594 31133 net.cpp:156] Memory required for data: 137698688
I0428 15:25:34.059598 31133 layer_factory.hpp:77] Creating layer conv2
I0428 15:25:34.059607 31133 net.cpp:91] Creating Layer conv2
I0428 15:25:34.059610 31133 net.cpp:425] conv2 <- pool1
I0428 15:25:34.059617 31133 net.cpp:399] conv2 -> conv2
I0428 15:25:34.061233 31133 net.cpp:141] Setting up conv2
I0428 15:25:34.061250 31133 net.cpp:148] Top shape: 16 64 125 23 (2944000)
I0428 15:25:34.061254 31133 net.cpp:156] Memory required for data: 149474688
I0428 15:25:34.061264 31133 layer_factory.hpp:77] Creating layer pool2
I0428 15:25:34.061274 31133 net.cpp:91] Creating Layer pool2
I0428 15:25:34.061277 31133 net.cpp:425] pool2 <- conv2
I0428 15:25:34.061285 31133 net.cpp:399] pool2 -> pool2
I0428 15:25:34.061326 31133 net.cpp:141] Setting up pool2
I0428 15:25:34.061333 31133 net.cpp:148] Top shape: 16 64 63 12 (774144)
I0428 15:25:34.061337 31133 net.cpp:156] Memory required for data: 152571264
I0428 15:25:34.061342 31133 layer_factory.hpp:77] Creating layer relu2
I0428 15:25:34.061347 31133 net.cpp:91] Creating Layer relu2
I0428 15:25:34.061350 31133 net.cpp:425] relu2 <- pool2
I0428 15:25:34.061357 31133 net.cpp:386] relu2 -> pool2 (in-place)
I0428 15:25:34.061363 31133 net.cpp:141] Setting up relu2
I0428 15:25:34.061368 31133 net.cpp:148] Top shape: 16 64 63 12 (774144)
I0428 15:25:34.061372 31133 net.cpp:156] Memory required for data: 155667840
I0428 15:25:34.061374 31133 layer_factory.hpp:77] Creating layer ip2
I0428 15:25:34.061388 31133 net.cpp:91] Creating Layer ip2
I0428 15:25:34.061393 31133 net.cpp:425] ip2 <- pool2
I0428 15:25:34.061399 31133 net.cpp:399] ip2 -> ip2
I0428 15:25:34.127665 31133 net.cpp:141] Setting up ip2
I0428 15:25:34.127696 31133 net.cpp:148] Top shape: 16 128 (2048)
I0428 15:25:34.127701 31133 net.cpp:156] Memory required for data: 155676032
I0428 15:25:34.127718 31133 layer_factory.hpp:77] Creating layer relu2
I0428 15:25:34.127730 31133 net.cpp:91] Creating Layer relu2
I0428 15:25:34.127737 31133 net.cpp:425] relu2 <- ip2
I0428 15:25:34.127746 31133 net.cpp:386] relu2 -> ip2 (in-place)
I0428 15:25:34.127758 31133 net.cpp:141] Setting up relu2
I0428 15:25:34.127763 31133 net.cpp:148] Top shape: 16 128 (2048)
I0428 15:25:34.127765 31133 net.cpp:156] Memory required for data: 155684224
I0428 15:25:34.127769 31133 layer_factory.hpp:77] Creating layer dropip2
I0428 15:25:34.127784 31133 net.cpp:91] Creating Layer dropip2
I0428 15:25:34.127789 31133 net.cpp:425] dropip2 <- ip2
I0428 15:25:34.127794 31133 net.cpp:386] dropip2 -> ip2 (in-place)
I0428 15:25:34.127825 31133 net.cpp:141] Setting up dropip2
I0428 15:25:34.127832 31133 net.cpp:148] Top shape: 16 128 (2048)
I0428 15:25:34.127835 31133 net.cpp:156] Memory required for data: 155692416
I0428 15:25:34.127840 31133 layer_factory.hpp:77] Creating layer score
I0428 15:25:34.127849 31133 net.cpp:91] Creating Layer score
I0428 15:25:34.127853 31133 net.cpp:425] score <- ip2
I0428 15:25:34.127861 31133 net.cpp:399] score -> score
I0428 15:25:34.127964 31133 net.cpp:141] Setting up score
I0428 15:25:34.127972 31133 net.cpp:148] Top shape: 16 2 (32)
I0428 15:25:34.127976 31133 net.cpp:156] Memory required for data: 155692544
I0428 15:25:34.127984 31133 layer_factory.hpp:77] Creating layer score_score_0_split
I0428 15:25:34.127992 31133 net.cpp:91] Creating Layer score_score_0_split
I0428 15:25:34.127996 31133 net.cpp:425] score_score_0_split <- score
I0428 15:25:34.128002 31133 net.cpp:399] score_score_0_split -> score_score_0_split_0
I0428 15:25:34.128011 31133 net.cpp:399] score_score_0_split -> score_score_0_split_1
I0428 15:25:34.128051 31133 net.cpp:141] Setting up score_score_0_split
I0428 15:25:34.128058 31133 net.cpp:148] Top shape: 16 2 (32)
I0428 15:25:34.128063 31133 net.cpp:148] Top shape: 16 2 (32)
I0428 15:25:34.128067 31133 net.cpp:156] Memory required for data: 155692800
I0428 15:25:34.128070 31133 layer_factory.hpp:77] Creating layer loss
I0428 15:25:34.128080 31133 net.cpp:91] Creating Layer loss
I0428 15:25:34.128084 31133 net.cpp:425] loss <- score_score_0_split_0
I0428 15:25:34.128089 31133 net.cpp:425] loss <- label
I0428 15:25:34.128095 31133 net.cpp:399] loss -> loss
I0428 15:25:34.128140 31133 net.cpp:141] Setting up loss
I0428 15:25:34.128149 31133 net.cpp:148] Top shape: (1)
I0428 15:25:34.128152 31133 net.cpp:151]     with loss weight 1
I0428 15:25:34.128171 31133 net.cpp:156] Memory required for data: 155692804
I0428 15:25:34.128175 31133 layer_factory.hpp:77] Creating layer sigmoid
I0428 15:25:34.128183 31133 net.cpp:91] Creating Layer sigmoid
I0428 15:25:34.128187 31133 net.cpp:425] sigmoid <- score_score_0_split_1
I0428 15:25:34.128193 31133 net.cpp:399] sigmoid -> sigmoid
I0428 15:25:34.128217 31133 net.cpp:141] Setting up sigmoid
I0428 15:25:34.128224 31133 net.cpp:148] Top shape: 16 2 (32)
I0428 15:25:34.128228 31133 net.cpp:156] Memory required for data: 155692932
I0428 15:25:34.128232 31133 layer_factory.hpp:77] Creating layer silence
I0428 15:25:34.128239 31133 net.cpp:91] Creating Layer silence
I0428 15:25:34.128244 31133 net.cpp:425] silence <- sigmoid
I0428 15:25:34.128250 31133 net.cpp:141] Setting up silence
I0428 15:25:34.128253 31133 net.cpp:156] Memory required for data: 155692932
…
