…
I0428 15:26:11.981827 31550 net.cpp:49] Initializing net from parameters: 
I0428 15:26:11.981906 31550 layer_factory.hpp:77] Creating layer data
I0428 15:26:11.981923 31550 net.cpp:91] Creating Layer data
I0428 15:26:11.981931 31550 net.cpp:399] data -> amsFeatures
I0428 15:26:11.981953 31550 hdf5_data_layer.cpp:79] Loading list of HDF5 filenames from: /home/pierre/masterarbeit/twoears/avasm/hdf5/avasm_data_train.txt
I0428 15:26:11.982089 31550 hdf5_data_layer.cpp:93] Number of HDF5 files: 1
I0428 15:26:11.982795 31550 hdf5.cpp:32] Datatype class: H5T_FLOAT
I0428 15:26:12.043439 31550 net.cpp:141] Setting up data
I0428 15:26:12.043484 31550 net.cpp:148] Top shape: 16 1 513 105 (861840)
I0428 15:26:12.043491 31550 net.cpp:156] Memory required for data: 3447360
I0428 15:26:12.043503 31550 layer_factory.hpp:77] Creating layer data
I0428 15:26:12.043525 31550 net.cpp:91] Creating Layer data
I0428 15:26:12.043534 31550 net.cpp:399] data -> label
I0428 15:26:12.043555 31550 hdf5_data_layer.cpp:79] Loading list of HDF5 filenames from: /home/pierre/masterarbeit/twoears/avasm/hdf5/avasm_data_train.txt
I0428 15:26:12.043792 31550 hdf5_data_layer.cpp:93] Number of HDF5 files: 1
I0428 15:26:12.045637 31550 net.cpp:141] Setting up data
I0428 15:26:12.045660 31550 net.cpp:148] Top shape: 16 2 (32)
I0428 15:26:12.045665 31550 net.cpp:156] Memory required for data: 3447488
I0428 15:26:12.045675 31550 layer_factory.hpp:77] Creating layer conv1
I0428 15:26:12.045706 31550 net.cpp:91] Creating Layer conv1
I0428 15:26:12.045713 31550 net.cpp:425] conv1 <- amsFeatures
I0428 15:26:12.045727 31550 net.cpp:399] conv1 -> conv1
I0428 15:26:12.047561 31550 net.cpp:141] Setting up conv1
I0428 15:26:12.047581 31550 net.cpp:148] Top shape: 16 75 253 49 (14876400)
I0428 15:26:12.047587 31550 net.cpp:156] Memory required for data: 62953088
I0428 15:26:12.047616 31550 layer_factory.hpp:77] Creating layer relu1
I0428 15:26:12.047627 31550 net.cpp:91] Creating Layer relu1
I0428 15:26:12.047638 31550 net.cpp:425] relu1 <- conv1
I0428 15:26:12.047647 31550 net.cpp:386] relu1 -> conv1 (in-place)
I0428 15:26:12.047662 31550 net.cpp:141] Setting up relu1
I0428 15:26:12.047670 31550 net.cpp:148] Top shape: 16 75 253 49 (14876400)
I0428 15:26:12.047677 31550 net.cpp:156] Memory required for data: 122458688
I0428 15:26:12.047683 31550 layer_factory.hpp:77] Creating layer pool1
I0428 15:26:12.047693 31550 net.cpp:91] Creating Layer pool1
I0428 15:26:12.047699 31550 net.cpp:425] pool1 <- conv1
I0428 15:26:12.047708 31550 net.cpp:399] pool1 -> pool1
I0428 15:26:12.047768 31550 net.cpp:141] Setting up pool1
I0428 15:26:12.047780 31550 net.cpp:148] Top shape: 16 75 127 25 (3810000)
I0428 15:26:12.047785 31550 net.cpp:156] Memory required for data: 137698688
I0428 15:26:12.047791 31550 layer_factory.hpp:77] Creating layer conv2
I0428 15:26:12.047806 31550 net.cpp:91] Creating Layer conv2
I0428 15:26:12.047812 31550 net.cpp:425] conv2 <- pool1
I0428 15:26:12.047822 31550 net.cpp:399] conv2 -> conv2
I0428 15:26:12.050117 31550 net.cpp:141] Setting up conv2
I0428 15:26:12.050139 31550 net.cpp:148] Top shape: 16 64 125 23 (2944000)
I0428 15:26:12.050145 31550 net.cpp:156] Memory required for data: 149474688
I0428 15:26:12.050163 31550 layer_factory.hpp:77] Creating layer pool2
I0428 15:26:12.050176 31550 net.cpp:91] Creating Layer pool2
I0428 15:26:12.050182 31550 net.cpp:425] pool2 <- conv2
I0428 15:26:12.050192 31550 net.cpp:399] pool2 -> pool2
I0428 15:26:12.050254 31550 net.cpp:141] Setting up pool2
I0428 15:26:12.050266 31550 net.cpp:148] Top shape: 16 64 63 12 (774144)
I0428 15:26:12.050271 31550 net.cpp:156] Memory required for data: 152571264
I0428 15:26:12.050277 31550 layer_factory.hpp:77] Creating layer relu2
I0428 15:26:12.050287 31550 net.cpp:91] Creating Layer relu2
I0428 15:26:12.050293 31550 net.cpp:425] relu2 <- pool2
I0428 15:26:12.050302 31550 net.cpp:386] relu2 -> pool2 (in-place)
I0428 15:26:12.050312 31550 net.cpp:141] Setting up relu2
I0428 15:26:12.050320 31550 net.cpp:148] Top shape: 16 64 63 12 (774144)
I0428 15:26:12.050325 31550 net.cpp:156] Memory required for data: 155667840
I0428 15:26:12.050331 31550 layer_factory.hpp:77] Creating layer ip2
I0428 15:26:12.050351 31550 net.cpp:91] Creating Layer ip2
I0428 15:26:12.050357 31550 net.cpp:425] ip2 <- pool2
I0428 15:26:12.050367 31550 net.cpp:399] ip2 -> ip2
I0428 15:26:12.136226 31550 net.cpp:141] Setting up ip2
I0428 15:26:12.136265 31550 net.cpp:148] Top shape: 16 128 (2048)
I0428 15:26:12.136271 31550 net.cpp:156] Memory required for data: 155676032
I0428 15:26:12.136297 31550 layer_factory.hpp:77] Creating layer relu2
I0428 15:26:12.136313 31550 net.cpp:91] Creating Layer relu2
I0428 15:26:12.136324 31550 net.cpp:425] relu2 <- ip2
I0428 15:26:12.136337 31550 net.cpp:386] relu2 -> ip2 (in-place)
I0428 15:26:12.136350 31550 net.cpp:141] Setting up relu2
I0428 15:26:12.136358 31550 net.cpp:148] Top shape: 16 128 (2048)
I0428 15:26:12.136363 31550 net.cpp:156] Memory required for data: 155684224
I0428 15:26:12.136369 31550 layer_factory.hpp:77] Creating layer dropip2
I0428 15:26:12.136389 31550 net.cpp:91] Creating Layer dropip2
I0428 15:26:12.136395 31550 net.cpp:425] dropip2 <- ip2
I0428 15:26:12.136404 31550 net.cpp:386] dropip2 -> ip2 (in-place)
I0428 15:26:12.136445 31550 net.cpp:141] Setting up dropip2
I0428 15:26:12.136456 31550 net.cpp:148] Top shape: 16 128 (2048)
I0428 15:26:12.136461 31550 net.cpp:156] Memory required for data: 155692416
I0428 15:26:12.136467 31550 layer_factory.hpp:77] Creating layer score
I0428 15:26:12.136481 31550 net.cpp:91] Creating Layer score
I0428 15:26:12.136487 31550 net.cpp:425] score <- ip2
I0428 15:26:12.136497 31550 net.cpp:399] score -> score
I0428 15:26:12.136641 31550 net.cpp:141] Setting up score
I0428 15:26:12.136653 31550 net.cpp:148] Top shape: 16 2 (32)
I0428 15:26:12.136658 31550 net.cpp:156] Memory required for data: 155692544
I0428 15:26:12.136669 31550 layer_factory.hpp:77] Creating layer score_score_0_split
I0428 15:26:12.136682 31550 net.cpp:91] Creating Layer score_score_0_split
I0428 15:26:12.136687 31550 net.cpp:425] score_score_0_split <- score
I0428 15:26:12.136695 31550 net.cpp:399] score_score_0_split -> score_score_0_split_0
I0428 15:26:12.136708 31550 net.cpp:399] score_score_0_split -> score_score_0_split_1
I0428 15:26:12.136761 31550 net.cpp:141] Setting up score_score_0_split
I0428 15:26:12.136772 31550 net.cpp:148] Top shape: 16 2 (32)
I0428 15:26:12.136780 31550 net.cpp:148] Top shape: 16 2 (32)
I0428 15:26:12.136785 31550 net.cpp:156] Memory required for data: 155692800
I0428 15:26:12.136790 31550 layer_factory.hpp:77] Creating layer loss
I0428 15:26:12.136806 31550 net.cpp:91] Creating Layer loss
I0428 15:26:12.136811 31550 net.cpp:425] loss <- score_score_0_split_0
I0428 15:26:12.136818 31550 net.cpp:425] loss <- label
I0428 15:26:12.136826 31550 net.cpp:399] loss -> loss
I0428 15:26:12.136898 31550 net.cpp:141] Setting up loss
I0428 15:26:12.136911 31550 net.cpp:148] Top shape: (1)
I0428 15:26:12.136917 31550 net.cpp:151]     with loss weight 1
I0428 15:26:12.136945 31550 net.cpp:156] Memory required for data: 155692804
I0428 15:26:12.136953 31550 layer_factory.hpp:77] Creating layer sigmoid
I0428 15:26:12.136965 31550 net.cpp:91] Creating Layer sigmoid
I0428 15:26:12.136977 31550 net.cpp:425] sigmoid <- score_score_0_split_1
I0428 15:26:12.136987 31550 net.cpp:399] sigmoid -> sigmoid
I0428 15:26:12.137027 31550 net.cpp:141] Setting up sigmoid
I0428 15:26:12.137039 31550 net.cpp:148] Top shape: 16 2 (32)
I0428 15:26:12.137044 31550 net.cpp:156] Memory required for data: 155692932
I0428 15:26:12.137050 31550 layer_factory.hpp:77] Creating layer silence
I0428 15:26:12.137061 31550 net.cpp:91] Creating Layer silence
I0428 15:26:12.137068 31550 net.cpp:425] silence <- sigmoid
I0428 15:26:12.137075 31550 net.cpp:141] Setting up silence
I0428 15:26:12.137080 31550 net.cpp:156] Memory required for data: 155692932
…
