…
I0428 15:27:46.429790 32550 net.cpp:49] Initializing net from parameters: 
I0428 15:27:46.429888 32550 layer_factory.hpp:77] Creating layer data
I0428 15:27:46.429913 32550 net.cpp:91] Creating Layer data
I0428 15:27:46.429927 32550 net.cpp:399] data -> amsFeatures
I0428 15:27:46.429965 32550 hdf5_data_layer.cpp:79] Loading list of HDF5 filenames from: /home/pierre/masterarbeit/twoears/avasm/hdf5/avasm_data_train.txt
I0428 15:27:46.430130 32550 hdf5_data_layer.cpp:93] Number of HDF5 files: 1
I0428 15:27:46.430975 32550 hdf5.cpp:32] Datatype class: H5T_FLOAT
I0428 15:27:46.483041 32550 net.cpp:141] Setting up data
I0428 15:27:46.483079 32550 net.cpp:148] Top shape: 16 1 513 105 (861840)
I0428 15:27:46.483083 32550 net.cpp:156] Memory required for data: 3447360
I0428 15:27:46.483093 32550 layer_factory.hpp:77] Creating layer data
I0428 15:27:46.483110 32550 net.cpp:91] Creating Layer data
I0428 15:27:46.483116 32550 net.cpp:399] data -> label
I0428 15:27:46.483132 32550 hdf5_data_layer.cpp:79] Loading list of HDF5 filenames from: /home/pierre/masterarbeit/twoears/avasm/hdf5/avasm_data_train.txt
I0428 15:27:46.483394 32550 hdf5_data_layer.cpp:93] Number of HDF5 files: 1
I0428 15:27:46.484877 32550 net.cpp:141] Setting up data
I0428 15:27:46.484894 32550 net.cpp:148] Top shape: 16 2 (32)
I0428 15:27:46.484899 32550 net.cpp:156] Memory required for data: 3447488
I0428 15:27:46.484905 32550 layer_factory.hpp:77] Creating layer conv1
I0428 15:27:46.484930 32550 net.cpp:91] Creating Layer conv1
I0428 15:27:46.484935 32550 net.cpp:425] conv1 <- amsFeatures
I0428 15:27:46.484942 32550 net.cpp:399] conv1 -> conv1
I0428 15:27:46.486228 32550 net.cpp:141] Setting up conv1
I0428 15:27:46.486243 32550 net.cpp:148] Top shape: 16 75 253 49 (14876400)
I0428 15:27:46.486245 32550 net.cpp:156] Memory required for data: 62953088
I0428 15:27:46.486265 32550 layer_factory.hpp:77] Creating layer relu1
I0428 15:27:46.486274 32550 net.cpp:91] Creating Layer relu1
I0428 15:27:46.486277 32550 net.cpp:425] relu1 <- conv1
I0428 15:27:46.486284 32550 net.cpp:386] relu1 -> conv1 (in-place)
I0428 15:27:46.486294 32550 net.cpp:141] Setting up relu1
I0428 15:27:46.486299 32550 net.cpp:148] Top shape: 16 75 253 49 (14876400)
I0428 15:27:46.486301 32550 net.cpp:156] Memory required for data: 122458688
I0428 15:27:46.486305 32550 layer_factory.hpp:77] Creating layer pool1
I0428 15:27:46.486313 32550 net.cpp:91] Creating Layer pool1
I0428 15:27:46.486316 32550 net.cpp:425] pool1 <- conv1
I0428 15:27:46.486322 32550 net.cpp:399] pool1 -> pool1
I0428 15:27:46.486366 32550 net.cpp:141] Setting up pool1
I0428 15:27:46.486372 32550 net.cpp:148] Top shape: 16 75 127 25 (3810000)
I0428 15:27:46.486377 32550 net.cpp:156] Memory required for data: 137698688
I0428 15:27:46.486379 32550 layer_factory.hpp:77] Creating layer conv2
I0428 15:27:46.486389 32550 net.cpp:91] Creating Layer conv2
I0428 15:27:46.486393 32550 net.cpp:425] conv2 <- pool1
I0428 15:27:46.486399 32550 net.cpp:399] conv2 -> conv2
I0428 15:27:46.488054 32550 net.cpp:141] Setting up conv2
I0428 15:27:46.488072 32550 net.cpp:148] Top shape: 16 64 125 23 (2944000)
I0428 15:27:46.488076 32550 net.cpp:156] Memory required for data: 149474688
I0428 15:27:46.488088 32550 layer_factory.hpp:77] Creating layer pool2
I0428 15:27:46.488097 32550 net.cpp:91] Creating Layer pool2
I0428 15:27:46.488102 32550 net.cpp:425] pool2 <- conv2
I0428 15:27:46.488108 32550 net.cpp:399] pool2 -> pool2
I0428 15:27:46.488150 32550 net.cpp:141] Setting up pool2
I0428 15:27:46.488157 32550 net.cpp:148] Top shape: 16 64 63 12 (774144)
I0428 15:27:46.488160 32550 net.cpp:156] Memory required for data: 152571264
I0428 15:27:46.488164 32550 layer_factory.hpp:77] Creating layer relu2
I0428 15:27:46.488169 32550 net.cpp:91] Creating Layer relu2
I0428 15:27:46.488173 32550 net.cpp:425] relu2 <- pool2
I0428 15:27:46.488178 32550 net.cpp:386] relu2 -> pool2 (in-place)
I0428 15:27:46.488184 32550 net.cpp:141] Setting up relu2
I0428 15:27:46.488189 32550 net.cpp:148] Top shape: 16 64 63 12 (774144)
I0428 15:27:46.488193 32550 net.cpp:156] Memory required for data: 155667840
I0428 15:27:46.488195 32550 layer_factory.hpp:77] Creating layer ip2
I0428 15:27:46.488210 32550 net.cpp:91] Creating Layer ip2
I0428 15:27:46.488214 32550 net.cpp:425] ip2 <- pool2
I0428 15:27:46.488219 32550 net.cpp:399] ip2 -> ip2
I0428 15:27:46.552898 32550 net.cpp:141] Setting up ip2
I0428 15:27:46.552934 32550 net.cpp:148] Top shape: 16 128 (2048)
I0428 15:27:46.552939 32550 net.cpp:156] Memory required for data: 155676032
I0428 15:27:46.552958 32550 layer_factory.hpp:77] Creating layer relu2
I0428 15:27:46.552970 32550 net.cpp:91] Creating Layer relu2
I0428 15:27:46.552979 32550 net.cpp:425] relu2 <- ip2
I0428 15:27:46.552988 32550 net.cpp:386] relu2 -> ip2 (in-place)
I0428 15:27:46.552999 32550 net.cpp:141] Setting up relu2
I0428 15:27:46.553004 32550 net.cpp:148] Top shape: 16 128 (2048)
I0428 15:27:46.553007 32550 net.cpp:156] Memory required for data: 155684224
I0428 15:27:46.553010 32550 layer_factory.hpp:77] Creating layer dropip2
I0428 15:27:46.553027 32550 net.cpp:91] Creating Layer dropip2
I0428 15:27:46.553031 32550 net.cpp:425] dropip2 <- ip2
I0428 15:27:46.553036 32550 net.cpp:386] dropip2 -> ip2 (in-place)
I0428 15:27:46.553067 32550 net.cpp:141] Setting up dropip2
I0428 15:27:46.553074 32550 net.cpp:148] Top shape: 16 128 (2048)
I0428 15:27:46.553077 32550 net.cpp:156] Memory required for data: 155692416
I0428 15:27:46.553081 32550 layer_factory.hpp:77] Creating layer score
I0428 15:27:46.553092 32550 net.cpp:91] Creating Layer score
I0428 15:27:46.553095 32550 net.cpp:425] score <- ip2
I0428 15:27:46.553102 32550 net.cpp:399] score -> score
I0428 15:27:46.553202 32550 net.cpp:141] Setting up score
I0428 15:27:46.553210 32550 net.cpp:148] Top shape: 16 2 (32)
I0428 15:27:46.553213 32550 net.cpp:156] Memory required for data: 155692544
I0428 15:27:46.553220 32550 layer_factory.hpp:77] Creating layer score_score_0_split
I0428 15:27:46.553230 32550 net.cpp:91] Creating Layer score_score_0_split
I0428 15:27:46.553233 32550 net.cpp:425] score_score_0_split <- score
I0428 15:27:46.553239 32550 net.cpp:399] score_score_0_split -> score_score_0_split_0
I0428 15:27:46.553247 32550 net.cpp:399] score_score_0_split -> score_score_0_split_1
I0428 15:27:46.553285 32550 net.cpp:141] Setting up score_score_0_split
I0428 15:27:46.553293 32550 net.cpp:148] Top shape: 16 2 (32)
I0428 15:27:46.553297 32550 net.cpp:148] Top shape: 16 2 (32)
I0428 15:27:46.553300 32550 net.cpp:156] Memory required for data: 155692800
I0428 15:27:46.553304 32550 layer_factory.hpp:77] Creating layer loss
I0428 15:27:46.553314 32550 net.cpp:91] Creating Layer loss
I0428 15:27:46.553318 32550 net.cpp:425] loss <- score_score_0_split_0
I0428 15:27:46.553323 32550 net.cpp:425] loss <- label
I0428 15:27:46.553328 32550 net.cpp:399] loss -> loss
I0428 15:27:46.553374 32550 net.cpp:141] Setting up loss
I0428 15:27:46.553380 32550 net.cpp:148] Top shape: (1)
I0428 15:27:46.553383 32550 net.cpp:151]     with loss weight 1
I0428 15:27:46.553406 32550 net.cpp:156] Memory required for data: 155692804
I0428 15:27:46.553409 32550 layer_factory.hpp:77] Creating layer sigmoid
I0428 15:27:46.553416 32550 net.cpp:91] Creating Layer sigmoid
I0428 15:27:46.553419 32550 net.cpp:425] sigmoid <- score_score_0_split_1
I0428 15:27:46.553426 32550 net.cpp:399] sigmoid -> sigmoid
I0428 15:27:46.553452 32550 net.cpp:141] Setting up sigmoid
I0428 15:27:46.553460 32550 net.cpp:148] Top shape: 16 2 (32)
I0428 15:27:46.553463 32550 net.cpp:156] Memory required for data: 155692932
I0428 15:27:46.553467 32550 layer_factory.hpp:77] Creating layer silence
I0428 15:27:46.553475 32550 net.cpp:91] Creating Layer silence
I0428 15:27:46.553479 32550 net.cpp:425] silence <- sigmoid
I0428 15:27:46.553485 32550 net.cpp:141] Setting up silence
I0428 15:27:46.553489 32550 net.cpp:156] Memory required for data: 155692932
…
