…
I0427 16:49:30.833044  6749 net.cpp:313] The NetState phase (0) differed from the phase (1) specified by a rule in layer data
I0427 16:49:30.833295  6749 net.cpp:49] Initializing net from parameters: 
name: "SoundNet"
state {
  phase: TRAIN
}
layer {
  name: "data"
  type: "HDF5Data"
  top: "amsFeatures"
  include {
    phase: TRAIN
  }
  hdf5_data_param {
    source: "/home/pierre/masterarbeit/twoears/avasm/hdf5/avasm_data_train.txt"
    batch_size: 16
  }
}
layer {
  name: "data"
  type: "HDF5Data"
  top: "label"
  include {
    phase: TRAIN
  }
  hdf5_data_param {
    source: "/home/pierre/masterarbeit/twoears/avasm/hdf5/avasm_data_train.txt"
    batch_size: 16
  }
}
layer {
  name: "conv1"
  type: "Convolution"
  bottom: "amsFeatures"
  top: "conv1"
  param {
    lr_mult: 1
    decay_mult: 1
  }
  param {
    lr_mult: 2
    decay_mult: 0
  }
  convolution_param {
    num_output: 75
    stride: 2
    weight_filler {
      type: "xavier"
    }
    bias_filler {
      type: "constant"
    }
    kernel_h: 9
    kernel_w: 9
  }
}
layer {
  name: "relu1"
  type: "ReLU"
  bottom: "conv1"
  top: "conv1"
}
layer {
  name: "pool1"
  type: "Pooling"
  bottom: "conv1"
  top: "pool1"
  pooling_param {
    pool: MAX
    kernel_size: 2
    stride: 2
  }
}
layer {
  name: "conv2"
  type: "Convolution"
  bottom: "pool1"
  top: "conv2"
  param {
    lr_mult: 1
    decay_mult: 1
  }
  param {
    lr_mult: 2
    decay_mult: 0
  }
  convolution_param {
    num_output: 64
    stride: 1
    weight_filler {
      type: "xavier"
    }
    bias_filler {
      type: "constant"
    }
    kernel_h: 3
    kernel_w: 3
  }
}
layer {
  name: "pool2"
  type: "Pooling"
  bottom: "conv2"
  top: "pool2"
  pooling_param {
    pool: MAX
    kernel_size: 2
    stride: 2
  }
}
layer {
  name: "relu2"
  type: "ReLU"
  bottom: "pool2"
  top: "pool2"
}
layer {
  name: "ip2"
  type: "InnerProduct"
  bottom: "pool2"
  top: "ip2"
  param {
    lr_mult: 1
  }
  param {
    lr_mult: 2
  }
  inner_product_param {
    num_output: 128
    weight_filler {
      type: "xavier"
    }
    bias_filler {
      type: "constant"
    }
  }
}
layer {
  name: "relu2"
  type: "ReLU"
  bottom: "ip2"
  top: "ip2"
}
layer {
  name: "dropip2"
  type: "Dropout"
  bottom: "ip2"
  top: "ip2"
  dropout_param {
    dropout_ratio: 0.5
  }
}
layer {
  name: "score"
  type: "InnerProduct"
  bottom: "ip2"
  top: "score"
  param {
    lr_mult: 1
  }
  param {
    lr_mult: 2
  }
  inner_product_param {
    num_output: 2
    weight_filler {
      type: "xavier"
    }
    bias_filler {
      type: "constant"
    }
  }
}
layer {
  name: "loss"
  type: "SigmoidCrossEntropyLoss"
  bottom: "score"
  bottom: "label"
  top: "loss"
}
I0427 16:49:30.833377  6749 layer_factory.hpp:77] Creating layer data
I0427 16:49:30.833396  6749 net.cpp:91] Creating Layer data
I0427 16:49:30.833408  6749 net.cpp:399] data -> amsFeatures
I0427 16:49:30.833432  6749 hdf5_data_layer.cpp:79] Loading list of HDF5 filenames from: /home/pierre/masterarbeit/twoears/avasm/hdf5/avasm_data_train.txt
I0427 16:49:30.833866  6749 hdf5_data_layer.cpp:93] Number of HDF5 files: 1
I0427 16:49:30.834800  6749 hdf5.cpp:32] Datatype class: H5T_FLOAT
I0427 16:49:30.894016  6749 net.cpp:141] Setting up data
I0427 16:49:30.894062  6749 net.cpp:148] Top shape: 16 1 513 105 (861840)
I0427 16:49:30.894068  6749 net.cpp:156] Memory required for data: 3447360
I0427 16:49:30.894085  6749 layer_factory.hpp:77] Creating layer data
I0427 16:49:30.894107  6749 net.cpp:91] Creating Layer data
I0427 16:49:30.894115  6749 net.cpp:399] data -> label
I0427 16:49:30.894134  6749 hdf5_data_layer.cpp:79] Loading list of HDF5 filenames from: /home/pierre/masterarbeit/twoears/avasm/hdf5/avasm_data_train.txt
I0427 16:49:30.894330  6749 hdf5_data_layer.cpp:93] Number of HDF5 files: 1
I0427 16:49:30.896060  6749 net.cpp:141] Setting up data
I0427 16:49:30.896081  6749 net.cpp:148] Top shape: 16 2 (32)
I0427 16:49:30.896087  6749 net.cpp:156] Memory required for data: 3447488
I0427 16:49:30.896095  6749 layer_factory.hpp:77] Creating layer conv1
I0427 16:49:30.896121  6749 net.cpp:91] Creating Layer conv1
I0427 16:49:30.896128  6749 net.cpp:425] conv1 <- amsFeatures
I0427 16:49:30.896141  6749 net.cpp:399] conv1 -> conv1
I0427 16:49:30.898010  6749 net.cpp:141] Setting up conv1
I0427 16:49:30.898033  6749 net.cpp:148] Top shape: 16 75 253 49 (14876400)
I0427 16:49:30.898041  6749 net.cpp:156] Memory required for data: 62953088
I0427 16:49:30.898071  6749 layer_factory.hpp:77] Creating layer relu1
I0427 16:49:30.898084  6749 net.cpp:91] Creating Layer relu1
I0427 16:49:30.898092  6749 net.cpp:425] relu1 <- conv1
I0427 16:49:30.898102  6749 net.cpp:386] relu1 -> conv1 (in-place)
I0427 16:49:30.898118  6749 net.cpp:141] Setting up relu1
I0427 16:49:30.898128  6749 net.cpp:148] Top shape: 16 75 253 49 (14876400)
I0427 16:49:30.898134  6749 net.cpp:156] Memory required for data: 122458688
I0427 16:49:30.898140  6749 layer_factory.hpp:77] Creating layer pool1
I0427 16:49:30.898151  6749 net.cpp:91] Creating Layer pool1
I0427 16:49:30.898157  6749 net.cpp:425] pool1 <- conv1
I0427 16:49:30.898166  6749 net.cpp:399] pool1 -> pool1
I0427 16:49:30.898226  6749 net.cpp:141] Setting up pool1
I0427 16:49:30.898238  6749 net.cpp:148] Top shape: 16 75 127 25 (3810000)
I0427 16:49:30.898246  6749 net.cpp:156] Memory required for data: 137698688
I0427 16:49:30.898252  6749 layer_factory.hpp:77] Creating layer conv2
I0427 16:49:30.898267  6749 net.cpp:91] Creating Layer conv2
I0427 16:49:30.898275  6749 net.cpp:425] conv2 <- pool1
I0427 16:49:30.898288  6749 net.cpp:399] conv2 -> conv2
I0427 16:49:30.900615  6749 net.cpp:141] Setting up conv2
I0427 16:49:30.900637  6749 net.cpp:148] Top shape: 16 64 125 23 (2944000)
I0427 16:49:30.900643  6749 net.cpp:156] Memory required for data: 149474688
I0427 16:49:30.900660  6749 layer_factory.hpp:77] Creating layer pool2
I0427 16:49:30.900672  6749 net.cpp:91] Creating Layer pool2
I0427 16:49:30.900679  6749 net.cpp:425] pool2 <- conv2
I0427 16:49:30.900689  6749 net.cpp:399] pool2 -> pool2
I0427 16:49:30.900746  6749 net.cpp:141] Setting up pool2
I0427 16:49:30.900758  6749 net.cpp:148] Top shape: 16 64 63 12 (774144)
I0427 16:49:30.900763  6749 net.cpp:156] Memory required for data: 152571264
I0427 16:49:30.900769  6749 layer_factory.hpp:77] Creating layer relu2
I0427 16:49:30.900779  6749 net.cpp:91] Creating Layer relu2
I0427 16:49:30.900784  6749 net.cpp:425] relu2 <- pool2
I0427 16:49:30.900794  6749 net.cpp:386] relu2 -> pool2 (in-place)
I0427 16:49:30.900804  6749 net.cpp:141] Setting up relu2
I0427 16:49:30.900811  6749 net.cpp:148] Top shape: 16 64 63 12 (774144)
I0427 16:49:30.900817  6749 net.cpp:156] Memory required for data: 155667840
I0427 16:49:30.900823  6749 layer_factory.hpp:77] Creating layer ip2
I0427 16:49:30.900842  6749 net.cpp:91] Creating Layer ip2
I0427 16:49:30.900851  6749 net.cpp:425] ip2 <- pool2
I0427 16:49:30.900864  6749 net.cpp:399] ip2 -> ip2
I0427 16:49:30.987715  6749 net.cpp:141] Setting up ip2
I0427 16:49:30.987751  6749 net.cpp:148] Top shape: 16 128 (2048)
I0427 16:49:30.987756  6749 net.cpp:156] Memory required for data: 155676032
I0427 16:49:30.987772  6749 layer_factory.hpp:77] Creating layer relu2
I0427 16:49:30.987784  6749 net.cpp:91] Creating Layer relu2
I0427 16:49:30.987790  6749 net.cpp:425] relu2 <- ip2
I0427 16:49:30.987798  6749 net.cpp:386] relu2 -> ip2 (in-place)
I0427 16:49:30.987812  6749 net.cpp:141] Setting up relu2
I0427 16:49:30.987818  6749 net.cpp:148] Top shape: 16 128 (2048)
I0427 16:49:30.987820  6749 net.cpp:156] Memory required for data: 155684224
I0427 16:49:30.987823  6749 layer_factory.hpp:77] Creating layer dropip2
I0427 16:49:30.987839  6749 net.cpp:91] Creating Layer dropip2
I0427 16:49:30.987843  6749 net.cpp:425] dropip2 <- ip2
I0427 16:49:30.987849  6749 net.cpp:386] dropip2 -> ip2 (in-place)
I0427 16:49:30.987879  6749 net.cpp:141] Setting up dropip2
I0427 16:49:30.987887  6749 net.cpp:148] Top shape: 16 128 (2048)
I0427 16:49:30.987890  6749 net.cpp:156] Memory required for data: 155692416
I0427 16:49:30.987895  6749 layer_factory.hpp:77] Creating layer score
I0427 16:49:30.987905  6749 net.cpp:91] Creating Layer score
I0427 16:49:30.987908  6749 net.cpp:425] score <- ip2
I0427 16:49:30.987915  6749 net.cpp:399] score -> score
I0427 16:49:30.988013  6749 net.cpp:141] Setting up score
I0427 16:49:30.988023  6749 net.cpp:148] Top shape: 16 2 (32)
I0427 16:49:30.988025  6749 net.cpp:156] Memory required for data: 155692544
I0427 16:49:30.988032  6749 layer_factory.hpp:77] Creating layer loss
I0427 16:49:30.988044  6749 net.cpp:91] Creating Layer loss
I0427 16:49:30.988047  6749 net.cpp:425] loss <- score
I0427 16:49:30.988052  6749 net.cpp:425] loss <- label
I0427 16:49:30.988059  6749 net.cpp:399] loss -> loss
I0427 16:49:30.988104  6749 net.cpp:141] Setting up loss
…
