…
I0428 15:28:54.643070   715 net.cpp:49] Initializing net from parameters: 
I0428 15:28:54.643187   715 layer_factory.hpp:77] Creating layer data
I0428 15:28:54.643208   715 net.cpp:91] Creating Layer data
I0428 15:28:54.643218   715 net.cpp:399] data -> amsFeatures
I0428 15:28:54.643241   715 hdf5_data_layer.cpp:79] Loading list of HDF5 filenames from: /home/pierre/masterarbeit/twoears/avasm/hdf5/avasm_data_train.txt
I0428 15:28:54.643715   715 hdf5_data_layer.cpp:93] Number of HDF5 files: 1
I0428 15:28:54.644651   715 hdf5.cpp:32] Datatype class: H5T_FLOAT
I0428 15:28:54.702966   715 net.cpp:141] Setting up data
I0428 15:28:54.703002   715 net.cpp:148] Top shape: 16 1 513 105 (861840)
I0428 15:28:54.703007   715 net.cpp:156] Memory required for data: 3447360
I0428 15:28:54.703016   715 layer_factory.hpp:77] Creating layer data
I0428 15:28:54.703032   715 net.cpp:91] Creating Layer data
I0428 15:28:54.703037   715 net.cpp:399] data -> label
I0428 15:28:54.703052   715 hdf5_data_layer.cpp:79] Loading list of HDF5 filenames from: /home/pierre/masterarbeit/twoears/avasm/hdf5/avasm_data_train.txt
I0428 15:28:54.703238   715 hdf5_data_layer.cpp:93] Number of HDF5 files: 1
I0428 15:28:54.704620   715 net.cpp:141] Setting up data
I0428 15:28:54.704638   715 net.cpp:148] Top shape: 16 2 (32)
I0428 15:28:54.704643   715 net.cpp:156] Memory required for data: 3447488
I0428 15:28:54.704648   715 layer_factory.hpp:77] Creating layer conv1
I0428 15:28:54.704669   715 net.cpp:91] Creating Layer conv1
I0428 15:28:54.704674   715 net.cpp:425] conv1 <- amsFeatures
I0428 15:28:54.704684   715 net.cpp:399] conv1 -> conv1
I0428 15:28:54.705962   715 net.cpp:141] Setting up conv1
I0428 15:28:54.705976   715 net.cpp:148] Top shape: 16 75 253 49 (14876400)
I0428 15:28:54.705981   715 net.cpp:156] Memory required for data: 62953088
I0428 15:28:54.705999   715 layer_factory.hpp:77] Creating layer relu1
I0428 15:28:54.706007   715 net.cpp:91] Creating Layer relu1
I0428 15:28:54.706012   715 net.cpp:425] relu1 <- conv1
I0428 15:28:54.706018   715 net.cpp:386] relu1 -> conv1 (in-place)
I0428 15:28:54.706027   715 net.cpp:141] Setting up relu1
I0428 15:28:54.706033   715 net.cpp:148] Top shape: 16 75 253 49 (14876400)
I0428 15:28:54.706037   715 net.cpp:156] Memory required for data: 122458688
I0428 15:28:54.706040   715 layer_factory.hpp:77] Creating layer pool1
I0428 15:28:54.706048   715 net.cpp:91] Creating Layer pool1
I0428 15:28:54.706053   715 net.cpp:425] pool1 <- conv1
I0428 15:28:54.706058   715 net.cpp:399] pool1 -> pool1
I0428 15:28:54.706101   715 net.cpp:141] Setting up pool1
I0428 15:28:54.706110   715 net.cpp:148] Top shape: 16 75 127 25 (3810000)
I0428 15:28:54.706113   715 net.cpp:156] Memory required for data: 137698688
I0428 15:28:54.706116   715 layer_factory.hpp:77] Creating layer conv2
I0428 15:28:54.706127   715 net.cpp:91] Creating Layer conv2
I0428 15:28:54.706131   715 net.cpp:425] conv2 <- pool1
I0428 15:28:54.706138   715 net.cpp:399] conv2 -> conv2
I0428 15:28:54.707805   715 net.cpp:141] Setting up conv2
I0428 15:28:54.707823   715 net.cpp:148] Top shape: 16 64 125 23 (2944000)
I0428 15:28:54.707825   715 net.cpp:156] Memory required for data: 149474688
I0428 15:28:54.707836   715 layer_factory.hpp:77] Creating layer pool2
I0428 15:28:54.707845   715 net.cpp:91] Creating Layer pool2
I0428 15:28:54.707849   715 net.cpp:425] pool2 <- conv2
I0428 15:28:54.707856   715 net.cpp:399] pool2 -> pool2
I0428 15:28:54.707897   715 net.cpp:141] Setting up pool2
I0428 15:28:54.707906   715 net.cpp:148] Top shape: 16 64 63 12 (774144)
I0428 15:28:54.707908   715 net.cpp:156] Memory required for data: 152571264
I0428 15:28:54.707912   715 layer_factory.hpp:77] Creating layer relu2
I0428 15:28:54.707917   715 net.cpp:91] Creating Layer relu2
I0428 15:28:54.707921   715 net.cpp:425] relu2 <- pool2
I0428 15:28:54.707927   715 net.cpp:386] relu2 -> pool2 (in-place)
I0428 15:28:54.707933   715 net.cpp:141] Setting up relu2
I0428 15:28:54.707938   715 net.cpp:148] Top shape: 16 64 63 12 (774144)
I0428 15:28:54.707942   715 net.cpp:156] Memory required for data: 155667840
I0428 15:28:54.707945   715 layer_factory.hpp:77] Creating layer ip2
I0428 15:28:54.707959   715 net.cpp:91] Creating Layer ip2
I0428 15:28:54.707963   715 net.cpp:425] ip2 <- pool2
I0428 15:28:54.707969   715 net.cpp:399] ip2 -> ip2
I0428 15:28:54.791115   715 net.cpp:141] Setting up ip2
I0428 15:28:54.791153   715 net.cpp:148] Top shape: 16 128 (2048)
I0428 15:28:54.791159   715 net.cpp:156] Memory required for data: 155676032
I0428 15:28:54.791182   715 layer_factory.hpp:77] Creating layer relu2
I0428 15:28:54.791195   715 net.cpp:91] Creating Layer relu2
I0428 15:28:54.791206   715 net.cpp:425] relu2 <- ip2
I0428 15:28:54.791221   715 net.cpp:386] relu2 -> ip2 (in-place)
I0428 15:28:54.791236   715 net.cpp:141] Setting up relu2
I0428 15:28:54.791245   715 net.cpp:148] Top shape: 16 128 (2048)
I0428 15:28:54.791251   715 net.cpp:156] Memory required for data: 155684224
I0428 15:28:54.791257   715 layer_factory.hpp:77] Creating layer dropip2
I0428 15:28:54.791276   715 net.cpp:91] Creating Layer dropip2
I0428 15:28:54.791283   715 net.cpp:425] dropip2 <- ip2
I0428 15:28:54.791292   715 net.cpp:386] dropip2 -> ip2 (in-place)
I0428 15:28:54.791334   715 net.cpp:141] Setting up dropip2
I0428 15:28:54.791345   715 net.cpp:148] Top shape: 16 128 (2048)
I0428 15:28:54.791352   715 net.cpp:156] Memory required for data: 155692416
I0428 15:28:54.791357   715 layer_factory.hpp:77] Creating layer score
I0428 15:28:54.791371   715 net.cpp:91] Creating Layer score
I0428 15:28:54.791378   715 net.cpp:425] score <- ip2
I0428 15:28:54.791388   715 net.cpp:399] score -> score
I0428 15:28:54.791541   715 net.cpp:141] Setting up score
I0428 15:28:54.791553   715 net.cpp:148] Top shape: 16 2 (32)
I0428 15:28:54.791558   715 net.cpp:156] Memory required for data: 155692544
I0428 15:28:54.791570   715 layer_factory.hpp:77] Creating layer score_score_0_split
I0428 15:28:54.791584   715 net.cpp:91] Creating Layer score_score_0_split
I0428 15:28:54.791590   715 net.cpp:425] score_score_0_split <- score
I0428 15:28:54.791599   715 net.cpp:399] score_score_0_split -> score_score_0_split_0
I0428 15:28:54.791612   715 net.cpp:399] score_score_0_split -> score_score_0_split_1
I0428 15:28:54.791669   715 net.cpp:141] Setting up score_score_0_split
I0428 15:28:54.791682   715 net.cpp:148] Top shape: 16 2 (32)
I0428 15:28:54.791689   715 net.cpp:148] Top shape: 16 2 (32)
I0428 15:28:54.791695   715 net.cpp:156] Memory required for data: 155692800
I0428 15:28:54.791702   715 layer_factory.hpp:77] Creating layer loss
I0428 15:28:54.791717   715 net.cpp:91] Creating Layer loss
I0428 15:28:54.791723   715 net.cpp:425] loss <- score_score_0_split_0
I0428 15:28:54.791730   715 net.cpp:425] loss <- label
I0428 15:28:54.791739   715 net.cpp:399] loss -> loss
I0428 15:28:54.791803   715 net.cpp:141] Setting up loss
I0428 15:28:54.791815   715 net.cpp:148] Top shape: (1)
I0428 15:28:54.791821   715 net.cpp:151]     with loss weight 1
I0428 15:28:54.791843   715 net.cpp:156] Memory required for data: 155692804
I0428 15:28:54.791851   715 layer_factory.hpp:77] Creating layer sigmoid
I0428 15:28:54.791860   715 net.cpp:91] Creating Layer sigmoid
I0428 15:28:54.791867   715 net.cpp:425] sigmoid <- score_score_0_split_1
I0428 15:28:54.791877   715 net.cpp:399] sigmoid -> sigmoid
I0428 15:28:54.791911   715 net.cpp:141] Setting up sigmoid
I0428 15:28:54.791923   715 net.cpp:148] Top shape: 16 2 (32)
I0428 15:28:54.791928   715 net.cpp:156] Memory required for data: 155692932
I0428 15:28:54.791934   715 layer_factory.hpp:77] Creating layer silence
I0428 15:28:54.791945   715 net.cpp:91] Creating Layer silence
I0428 15:28:54.791951   715 net.cpp:425] silence <- sigmoid
I0428 15:28:54.791960   715 net.cpp:141] Setting up silence
I0428 15:28:54.791966   715 net.cpp:156] Memory required for data: 155692932
…
