…
I0428 14:27:03.927462 28705 net.cpp:49] Initializing net from parameters: 
I0428 14:27:03.927520 28705 layer_factory.hpp:77] Creating layer data
I0428 14:27:03.927536 28705 net.cpp:91] Creating Layer data
I0428 14:27:03.927544 28705 net.cpp:399] data -> amsFeatures
I0428 14:27:03.927567 28705 hdf5_data_layer.cpp:79] Loading list of HDF5 filenames from: /home/pierre/masterarbeit/twoears/avasm/hdf5/avasm_data_train.txt
I0428 14:27:03.927757 28705 hdf5_data_layer.cpp:93] Number of HDF5 files: 1
I0428 14:27:03.928472 28705 hdf5.cpp:32] Datatype class: H5T_FLOAT
I0428 14:27:03.986007 28705 net.cpp:141] Setting up data
I0428 14:27:03.986053 28705 net.cpp:148] Top shape: 16 1 513 105 (861840)
I0428 14:27:03.986059 28705 net.cpp:156] Memory required for data: 3447360
I0428 14:27:03.986075 28705 layer_factory.hpp:77] Creating layer data
I0428 14:27:03.986099 28705 net.cpp:91] Creating Layer data
I0428 14:27:03.986107 28705 net.cpp:399] data -> label
I0428 14:27:03.986127 28705 hdf5_data_layer.cpp:79] Loading list of HDF5 filenames from: /home/pierre/masterarbeit/twoears/avasm/hdf5/avasm_data_train.txt
I0428 14:27:03.986363 28705 hdf5_data_layer.cpp:93] Number of HDF5 files: 1
I0428 14:27:03.987857 28705 net.cpp:141] Setting up data
I0428 14:27:03.987874 28705 net.cpp:148] Top shape: 16 2 (32)
I0428 14:27:03.987879 28705 net.cpp:156] Memory required for data: 3447488
I0428 14:27:03.987884 28705 layer_factory.hpp:77] Creating layer conv1
I0428 14:27:03.987910 28705 net.cpp:91] Creating Layer conv1
I0428 14:27:03.987915 28705 net.cpp:425] conv1 <- amsFeatures
I0428 14:27:03.987925 28705 net.cpp:399] conv1 -> conv1
I0428 14:27:03.989236 28705 net.cpp:141] Setting up conv1
I0428 14:27:03.989251 28705 net.cpp:148] Top shape: 16 75 253 49 (14876400)
I0428 14:27:03.989255 28705 net.cpp:156] Memory required for data: 62953088
I0428 14:27:03.989276 28705 layer_factory.hpp:77] Creating layer relu1
I0428 14:27:03.989285 28705 net.cpp:91] Creating Layer relu1
I0428 14:27:03.989290 28705 net.cpp:425] relu1 <- conv1
I0428 14:27:03.989297 28705 net.cpp:386] relu1 -> conv1 (in-place)
I0428 14:27:03.989307 28705 net.cpp:141] Setting up relu1
I0428 14:27:03.989313 28705 net.cpp:148] Top shape: 16 75 253 49 (14876400)
I0428 14:27:03.989316 28705 net.cpp:156] Memory required for data: 122458688
I0428 14:27:03.989320 28705 layer_factory.hpp:77] Creating layer pool1
I0428 14:27:03.989328 28705 net.cpp:91] Creating Layer pool1
I0428 14:27:03.989332 28705 net.cpp:425] pool1 <- conv1
I0428 14:27:03.989338 28705 net.cpp:399] pool1 -> pool1
I0428 14:27:03.989384 28705 net.cpp:141] Setting up pool1
I0428 14:27:03.989392 28705 net.cpp:148] Top shape: 16 75 127 25 (3810000)
I0428 14:27:03.989395 28705 net.cpp:156] Memory required for data: 137698688
I0428 14:27:03.989399 28705 layer_factory.hpp:77] Creating layer conv2
I0428 14:27:03.989410 28705 net.cpp:91] Creating Layer conv2
I0428 14:27:03.989414 28705 net.cpp:425] conv2 <- pool1
I0428 14:27:03.989421 28705 net.cpp:399] conv2 -> conv2
I0428 14:27:03.991083 28705 net.cpp:141] Setting up conv2
I0428 14:27:03.991101 28705 net.cpp:148] Top shape: 16 64 125 23 (2944000)
I0428 14:27:03.991106 28705 net.cpp:156] Memory required for data: 149474688
I0428 14:27:03.991117 28705 layer_factory.hpp:77] Creating layer pool2
I0428 14:27:03.991127 28705 net.cpp:91] Creating Layer pool2
I0428 14:27:03.991132 28705 net.cpp:425] pool2 <- conv2
I0428 14:27:03.991138 28705 net.cpp:399] pool2 -> pool2
I0428 14:27:03.991186 28705 net.cpp:141] Setting up pool2
I0428 14:27:03.991194 28705 net.cpp:148] Top shape: 16 64 63 12 (774144)
I0428 14:27:03.991197 28705 net.cpp:156] Memory required for data: 152571264
I0428 14:27:03.991201 28705 layer_factory.hpp:77] Creating layer relu2
I0428 14:27:03.991207 28705 net.cpp:91] Creating Layer relu2
I0428 14:27:03.991210 28705 net.cpp:425] relu2 <- pool2
I0428 14:27:03.991215 28705 net.cpp:386] relu2 -> pool2 (in-place)
I0428 14:27:03.991222 28705 net.cpp:141] Setting up relu2
I0428 14:27:03.991227 28705 net.cpp:148] Top shape: 16 64 63 12 (774144)
I0428 14:27:03.991230 28705 net.cpp:156] Memory required for data: 155667840
I0428 14:27:03.991233 28705 layer_factory.hpp:77] Creating layer ip2
I0428 14:27:03.991248 28705 net.cpp:91] Creating Layer ip2
I0428 14:27:03.991251 28705 net.cpp:425] ip2 <- pool2
I0428 14:27:03.991257 28705 net.cpp:399] ip2 -> ip2
I0428 14:27:04.065780 28705 net.cpp:141] Setting up ip2
I0428 14:27:04.065820 28705 net.cpp:148] Top shape: 16 128 (2048)
I0428 14:27:04.065825 28705 net.cpp:156] Memory required for data: 155676032
I0428 14:27:04.065845 28705 layer_factory.hpp:77] Creating layer relu2
I0428 14:27:04.065858 28705 net.cpp:91] Creating Layer relu2
I0428 14:27:04.065865 28705 net.cpp:425] relu2 <- ip2
I0428 14:27:04.065873 28705 net.cpp:386] relu2 -> ip2 (in-place)
I0428 14:27:04.065889 28705 net.cpp:141] Setting up relu2
I0428 14:27:04.065894 28705 net.cpp:148] Top shape: 16 128 (2048)
I0428 14:27:04.065898 28705 net.cpp:156] Memory required for data: 155684224
I0428 14:27:04.065901 28705 layer_factory.hpp:77] Creating layer dropip2
I0428 14:27:04.065920 28705 net.cpp:91] Creating Layer dropip2
I0428 14:27:04.065924 28705 net.cpp:425] dropip2 <- ip2
I0428 14:27:04.065930 28705 net.cpp:386] dropip2 -> ip2 (in-place)
I0428 14:27:04.065963 28705 net.cpp:141] Setting up dropip2
I0428 14:27:04.065970 28705 net.cpp:148] Top shape: 16 128 (2048)
I0428 14:27:04.065973 28705 net.cpp:156] Memory required for data: 155692416
I0428 14:27:04.065978 28705 layer_factory.hpp:77] Creating layer score
I0428 14:27:04.065987 28705 net.cpp:91] Creating Layer score
I0428 14:27:04.065992 28705 net.cpp:425] score <- ip2
I0428 14:27:04.065999 28705 net.cpp:399] score -> score
I0428 14:27:04.066104 28705 net.cpp:141] Setting up score
I0428 14:27:04.066112 28705 net.cpp:148] Top shape: 16 2 (32)
I0428 14:27:04.066117 28705 net.cpp:156] Memory required for data: 155692544
I0428 14:27:04.066123 28705 layer_factory.hpp:77] Creating layer loss
I0428 14:27:04.066135 28705 net.cpp:91] Creating Layer loss
I0428 14:27:04.066140 28705 net.cpp:425] loss <- score
I0428 14:27:04.066145 28705 net.cpp:425] loss <- label
I0428 14:27:04.066151 28705 net.cpp:399] loss -> loss
I0428 14:27:04.066200 28705 net.cpp:141] Setting up loss
…
