…
I0427 16:42:48.143317  2636 net.cpp:313] The NetState phase (0) differed from the phase (1) specified by a rule in layer data
I0427 16:42:48.143551  2636 net.cpp:49] Initializing net from parameters: 
name: "SoundNet"
state {
  phase: TRAIN
}
layer {
  name: "data"
  type: "HDF5Data"
  top: "amsFeatures"
  include {
    phase: TRAIN
  }
  hdf5_data_param {
    source: "/home/pierre/masterarbeit/twoears/avasm/hdf5/avasm_data_train.txt"
    batch_size: 16
  }
}
layer {
  name: "data"
  type: "HDF5Data"
  top: "label"
  include {
    phase: TRAIN
  }
  hdf5_data_param {
    source: "/home/pierre/masterarbeit/twoears/avasm/hdf5/avasm_data_train.txt"
    batch_size: 16
  }
}
layer {
  name: "conv1"
  type: "Convolution"
  bottom: "amsFeatures"
  top: "conv1"
  param {
    lr_mult: 1
    decay_mult: 1
  }
  param {
    lr_mult: 2
    decay_mult: 0
  }
  convolution_param {
    num_output: 75
    stride: 2
    weight_filler {
      type: "xavier"
    }
    bias_filler {
      type: "constant"
    }
    kernel_h: 9
    kernel_w: 9
  }
}
layer {
  name: "relu1"
  type: "ReLU"
  bottom: "conv1"
  top: "conv1"
}
layer {
  name: "pool1"
  type: "Pooling"
  bottom: "conv1"
  top: "pool1"
  pooling_param {
    pool: MAX
    kernel_size: 2
    stride: 2
  }
}
layer {
  name: "conv2"
  type: "Convolution"
  bottom: "pool1"
  top: "conv2"
  param {
    lr_mult: 1
    decay_mult: 1
  }
  param {
    lr_mult: 2
    decay_mult: 0
  }
  convolution_param {
    num_output: 64
    stride: 1
    weight_filler {
      type: "xavier"
    }
    bias_filler {
      type: "constant"
    }
    kernel_h: 3
    kernel_w: 3
  }
}
layer {
  name: "pool2"
  type: "Pooling"
  bottom: "conv2"
  top: "pool2"
  pooling_param {
    pool: MAX
    kernel_size: 2
    stride: 2
  }
}
layer {
  name: "relu2"
  type: "ReLU"
  bottom: "pool2"
  top: "pool2"
}
layer {
  name: "ip2"
  type: "InnerProduct"
  bottom: "pool2"
  top: "ip2"
  param {
    lr_mult: 1
  }
  param {
    lr_mult: 2
  }
  inner_product_param {
    num_output: 128
    weight_filler {
      type: "xavier"
    }
    bias_filler {
      type: "constant"
    }
  }
}
layer {
  name: "relu2"
  type: "ReLU"
  bottom: "ip2"
  top: "ip2"
}
layer {
  name: "dropip2"
  type: "Dropout"
  bottom: "ip2"
  top: "ip2"
  dropout_param {
    dropout_ratio: 0.5
  }
}
layer {
  name: "score"
  type: "InnerProduct"
  bottom: "ip2"
  top: "score"
  param {
    lr_mult: 1
  }
  param {
    lr_mult: 2
  }
  inner_product_param {
    num_output: 2
    weight_filler {
      type: "xavier"
    }
    bias_filler {
      type: "constant"
    }
  }
}
layer {
  name: "loss"
  type: "SigmoidCrossEntropyLoss"
  bottom: "score"
  bottom: "label"
  top: "loss"
}
I0427 16:42:48.143630  2636 layer_factory.hpp:77] Creating layer data
I0427 16:42:48.143646  2636 net.cpp:91] Creating Layer data
I0427 16:42:48.143656  2636 net.cpp:399] data -> amsFeatures
I0427 16:42:48.143681  2636 hdf5_data_layer.cpp:79] Loading list of HDF5 filenames from: /home/pierre/masterarbeit/twoears/avasm/hdf5/avasm_data_train.txt
I0427 16:42:48.144098  2636 hdf5_data_layer.cpp:93] Number of HDF5 files: 1
I0427 16:42:48.145262  2636 hdf5.cpp:32] Datatype class: H5T_FLOAT
I0427 16:42:48.203761  2636 net.cpp:141] Setting up data
I0427 16:42:48.203806  2636 net.cpp:148] Top shape: 16 1 513 105 (861840)
I0427 16:42:48.203814  2636 net.cpp:156] Memory required for data: 3447360
I0427 16:42:48.203827  2636 layer_factory.hpp:77] Creating layer data
I0427 16:42:48.203850  2636 net.cpp:91] Creating Layer data
I0427 16:42:48.203860  2636 net.cpp:399] data -> label
I0427 16:42:48.203878  2636 hdf5_data_layer.cpp:79] Loading list of HDF5 filenames from: /home/pierre/masterarbeit/twoears/avasm/hdf5/avasm_data_train.txt
I0427 16:42:48.204093  2636 hdf5_data_layer.cpp:93] Number of HDF5 files: 1
I0427 16:42:48.205812  2636 net.cpp:141] Setting up data
I0427 16:42:48.205829  2636 net.cpp:148] Top shape: 16 2 (32)
I0427 16:42:48.205835  2636 net.cpp:156] Memory required for data: 3447488
I0427 16:42:48.205843  2636 layer_factory.hpp:77] Creating layer conv1
I0427 16:42:48.205868  2636 net.cpp:91] Creating Layer conv1
I0427 16:42:48.205874  2636 net.cpp:425] conv1 <- amsFeatures
I0427 16:42:48.205885  2636 net.cpp:399] conv1 -> conv1
I0427 16:42:48.207655  2636 net.cpp:141] Setting up conv1
I0427 16:42:48.207676  2636 net.cpp:148] Top shape: 16 75 253 49 (14876400)
I0427 16:42:48.207682  2636 net.cpp:156] Memory required for data: 62953088
I0427 16:42:48.207706  2636 layer_factory.hpp:77] Creating layer relu1
I0427 16:42:48.207718  2636 net.cpp:91] Creating Layer relu1
I0427 16:42:48.207725  2636 net.cpp:425] relu1 <- conv1
I0427 16:42:48.207734  2636 net.cpp:386] relu1 -> conv1 (in-place)
I0427 16:42:48.207747  2636 net.cpp:141] Setting up relu1
I0427 16:42:48.207756  2636 net.cpp:148] Top shape: 16 75 253 49 (14876400)
I0427 16:42:48.207762  2636 net.cpp:156] Memory required for data: 122458688
I0427 16:42:48.207767  2636 layer_factory.hpp:77] Creating layer pool1
I0427 16:42:48.207778  2636 net.cpp:91] Creating Layer pool1
I0427 16:42:48.207784  2636 net.cpp:425] pool1 <- conv1
I0427 16:42:48.207793  2636 net.cpp:399] pool1 -> pool1
I0427 16:42:48.207850  2636 net.cpp:141] Setting up pool1
I0427 16:42:48.207862  2636 net.cpp:148] Top shape: 16 75 127 25 (3810000)
I0427 16:42:48.207867  2636 net.cpp:156] Memory required for data: 137698688
I0427 16:42:48.207873  2636 layer_factory.hpp:77] Creating layer conv2
I0427 16:42:48.207887  2636 net.cpp:91] Creating Layer conv2
I0427 16:42:48.207893  2636 net.cpp:425] conv2 <- pool1
I0427 16:42:48.207903  2636 net.cpp:399] conv2 -> conv2
I0427 16:42:48.210160  2636 net.cpp:141] Setting up conv2
I0427 16:42:48.210181  2636 net.cpp:148] Top shape: 16 64 125 23 (2944000)
I0427 16:42:48.210187  2636 net.cpp:156] Memory required for data: 149474688
I0427 16:42:48.210204  2636 layer_factory.hpp:77] Creating layer pool2
I0427 16:42:48.210216  2636 net.cpp:91] Creating Layer pool2
I0427 16:42:48.210222  2636 net.cpp:425] pool2 <- conv2
I0427 16:42:48.210233  2636 net.cpp:399] pool2 -> pool2
I0427 16:42:48.210291  2636 net.cpp:141] Setting up pool2
I0427 16:42:48.210304  2636 net.cpp:148] Top shape: 16 64 63 12 (774144)
I0427 16:42:48.210309  2636 net.cpp:156] Memory required for data: 152571264
I0427 16:42:48.210316  2636 layer_factory.hpp:77] Creating layer relu2
I0427 16:42:48.210325  2636 net.cpp:91] Creating Layer relu2
I0427 16:42:48.210331  2636 net.cpp:425] relu2 <- pool2
I0427 16:42:48.210340  2636 net.cpp:386] relu2 -> pool2 (in-place)
I0427 16:42:48.210350  2636 net.cpp:141] Setting up relu2
I0427 16:42:48.210360  2636 net.cpp:148] Top shape: 16 64 63 12 (774144)
I0427 16:42:48.210366  2636 net.cpp:156] Memory required for data: 155667840
I0427 16:42:48.210371  2636 layer_factory.hpp:77] Creating layer ip2
I0427 16:42:48.210389  2636 net.cpp:91] Creating Layer ip2
I0427 16:42:48.210397  2636 net.cpp:425] ip2 <- pool2
I0427 16:42:48.210407  2636 net.cpp:399] ip2 -> ip2
I0427 16:42:48.301898  2636 net.cpp:141] Setting up ip2
I0427 16:42:48.301940  2636 net.cpp:148] Top shape: 16 128 (2048)
I0427 16:42:48.301950  2636 net.cpp:156] Memory required for data: 155676032
I0427 16:42:48.301977  2636 layer_factory.hpp:77] Creating layer relu2
I0427 16:42:48.301995  2636 net.cpp:91] Creating Layer relu2
I0427 16:42:48.302005  2636 net.cpp:425] relu2 <- ip2
I0427 16:42:48.302018  2636 net.cpp:386] relu2 -> ip2 (in-place)
I0427 16:42:48.302037  2636 net.cpp:141] Setting up relu2
I0427 16:42:48.302047  2636 net.cpp:148] Top shape: 16 128 (2048)
I0427 16:42:48.302052  2636 net.cpp:156] Memory required for data: 155684224
I0427 16:42:48.302057  2636 layer_factory.hpp:77] Creating layer dropip2
I0427 16:42:48.302079  2636 net.cpp:91] Creating Layer dropip2
I0427 16:42:48.302085  2636 net.cpp:425] dropip2 <- ip2
I0427 16:42:48.302094  2636 net.cpp:386] dropip2 -> ip2 (in-place)
I0427 16:42:48.302136  2636 net.cpp:141] Setting up dropip2
I0427 16:42:48.302148  2636 net.cpp:148] Top shape: 16 128 (2048)
I0427 16:42:48.302155  2636 net.cpp:156] Memory required for data: 155692416
I0427 16:42:48.302161  2636 layer_factory.hpp:77] Creating layer score
I0427 16:42:48.302178  2636 net.cpp:91] Creating Layer score
I0427 16:42:48.302187  2636 net.cpp:425] score <- ip2
I0427 16:42:48.302201  2636 net.cpp:399] score -> score
I0427 16:42:48.302415  2636 net.cpp:141] Setting up score
I0427 16:42:48.302436  2636 net.cpp:148] Top shape: 16 2 (32)
I0427 16:42:48.302443  2636 net.cpp:156] Memory required for data: 155692544
I0427 16:42:48.302456  2636 layer_factory.hpp:77] Creating layer loss
I0427 16:42:48.302474  2636 net.cpp:91] Creating Layer loss
I0427 16:42:48.302480  2636 net.cpp:425] loss <- score
I0427 16:42:48.302489  2636 net.cpp:425] loss <- label
I0427 16:42:48.302498  2636 net.cpp:399] loss -> loss
I0427 16:42:48.302569  2636 net.cpp:141] Setting up loss
…
