…
I0427 16:44:32.392536  3703 net.cpp:313] The NetState phase (0) differed from the phase (1) specified by a rule in layer data
I0427 16:44:32.392761  3703 net.cpp:49] Initializing net from parameters: 
name: "SoundNet"
state {
  phase: TRAIN
}
layer {
  name: "data"
  type: "HDF5Data"
  top: "amsFeatures"
  include {
    phase: TRAIN
  }
  hdf5_data_param {
    source: "/home/pierre/masterarbeit/twoears/avasm/hdf5/avasm_data_train.txt"
    batch_size: 16
  }
}
layer {
  name: "data"
  type: "HDF5Data"
  top: "label"
  include {
    phase: TRAIN
  }
  hdf5_data_param {
    source: "/home/pierre/masterarbeit/twoears/avasm/hdf5/avasm_data_train.txt"
    batch_size: 16
  }
}
layer {
  name: "conv1"
  type: "Convolution"
  bottom: "amsFeatures"
  top: "conv1"
  param {
    lr_mult: 1
    decay_mult: 1
  }
  param {
    lr_mult: 2
    decay_mult: 0
  }
  convolution_param {
    num_output: 75
    stride: 2
    weight_filler {
      type: "xavier"
    }
    bias_filler {
      type: "constant"
    }
    kernel_h: 9
    kernel_w: 9
  }
}
layer {
  name: "relu1"
  type: "ReLU"
  bottom: "conv1"
  top: "conv1"
}
layer {
  name: "pool1"
  type: "Pooling"
  bottom: "conv1"
  top: "pool1"
  pooling_param {
    pool: MAX
    kernel_size: 2
    stride: 2
  }
}
layer {
  name: "conv2"
  type: "Convolution"
  bottom: "pool1"
  top: "conv2"
  param {
    lr_mult: 1
    decay_mult: 1
  }
  param {
    lr_mult: 2
    decay_mult: 0
  }
  convolution_param {
    num_output: 64
    stride: 1
    weight_filler {
      type: "xavier"
    }
    bias_filler {
      type: "constant"
    }
    kernel_h: 3
    kernel_w: 3
  }
}
layer {
  name: "pool2"
  type: "Pooling"
  bottom: "conv2"
  top: "pool2"
  pooling_param {
    pool: MAX
    kernel_size: 2
    stride: 2
  }
}
layer {
  name: "relu2"
  type: "ReLU"
  bottom: "pool2"
  top: "pool2"
}
layer {
  name: "ip2"
  type: "InnerProduct"
  bottom: "pool2"
  top: "ip2"
  param {
    lr_mult: 1
  }
  param {
    lr_mult: 2
  }
  inner_product_param {
    num_output: 128
    weight_filler {
      type: "xavier"
    }
    bias_filler {
      type: "constant"
    }
  }
}
layer {
  name: "relu2"
  type: "ReLU"
  bottom: "ip2"
  top: "ip2"
}
layer {
  name: "dropip2"
  type: "Dropout"
  bottom: "ip2"
  top: "ip2"
  dropout_param {
    dropout_ratio: 0.5
  }
}
layer {
  name: "score"
  type: "InnerProduct"
  bottom: "ip2"
  top: "score"
  param {
    lr_mult: 1
  }
  param {
    lr_mult: 2
  }
  inner_product_param {
    num_output: 2
    weight_filler {
      type: "xavier"
    }
    bias_filler {
      type: "constant"
    }
  }
}
layer {
  name: "loss"
  type: "SigmoidCrossEntropyLoss"
  bottom: "score"
  bottom: "label"
  top: "loss"
}
I0427 16:44:32.392841  3703 layer_factory.hpp:77] Creating layer data
I0427 16:44:32.392858  3703 net.cpp:91] Creating Layer data
I0427 16:44:32.392869  3703 net.cpp:399] data -> amsFeatures
I0427 16:44:32.392895  3703 hdf5_data_layer.cpp:79] Loading list of HDF5 filenames from: /home/pierre/masterarbeit/twoears/avasm/hdf5/avasm_data_train.txt
I0427 16:44:32.393296  3703 hdf5_data_layer.cpp:93] Number of HDF5 files: 1
I0427 16:44:32.394341  3703 hdf5.cpp:32] Datatype class: H5T_FLOAT
I0427 16:44:32.452800  3703 net.cpp:141] Setting up data
I0427 16:44:32.452839  3703 net.cpp:148] Top shape: 16 1 513 105 (861840)
I0427 16:44:32.452844  3703 net.cpp:156] Memory required for data: 3447360
I0427 16:44:32.452857  3703 layer_factory.hpp:77] Creating layer data
I0427 16:44:32.452874  3703 net.cpp:91] Creating Layer data
I0427 16:44:32.452880  3703 net.cpp:399] data -> label
I0427 16:44:32.452898  3703 hdf5_data_layer.cpp:79] Loading list of HDF5 filenames from: /home/pierre/masterarbeit/twoears/avasm/hdf5/avasm_data_train.txt
I0427 16:44:32.453135  3703 hdf5_data_layer.cpp:93] Number of HDF5 files: 1
I0427 16:44:32.454372  3703 net.cpp:141] Setting up data
I0427 16:44:32.454388  3703 net.cpp:148] Top shape: 16 2 (32)
I0427 16:44:32.454392  3703 net.cpp:156] Memory required for data: 3447488
I0427 16:44:32.454398  3703 layer_factory.hpp:77] Creating layer conv1
I0427 16:44:32.454421  3703 net.cpp:91] Creating Layer conv1
I0427 16:44:32.454427  3703 net.cpp:425] conv1 <- amsFeatures
I0427 16:44:32.454434  3703 net.cpp:399] conv1 -> conv1
I0427 16:44:32.455664  3703 net.cpp:141] Setting up conv1
I0427 16:44:32.455677  3703 net.cpp:148] Top shape: 16 75 253 49 (14876400)
I0427 16:44:32.455682  3703 net.cpp:156] Memory required for data: 62953088
I0427 16:44:32.455701  3703 layer_factory.hpp:77] Creating layer relu1
I0427 16:44:32.455709  3703 net.cpp:91] Creating Layer relu1
I0427 16:44:32.455713  3703 net.cpp:425] relu1 <- conv1
I0427 16:44:32.455719  3703 net.cpp:386] relu1 -> conv1 (in-place)
I0427 16:44:32.455729  3703 net.cpp:141] Setting up relu1
I0427 16:44:32.455734  3703 net.cpp:148] Top shape: 16 75 253 49 (14876400)
I0427 16:44:32.455737  3703 net.cpp:156] Memory required for data: 122458688
I0427 16:44:32.455741  3703 layer_factory.hpp:77] Creating layer pool1
I0427 16:44:32.455749  3703 net.cpp:91] Creating Layer pool1
I0427 16:44:32.455752  3703 net.cpp:425] pool1 <- conv1
I0427 16:44:32.455759  3703 net.cpp:399] pool1 -> pool1
I0427 16:44:32.455801  3703 net.cpp:141] Setting up pool1
I0427 16:44:32.455809  3703 net.cpp:148] Top shape: 16 75 127 25 (3810000)
I0427 16:44:32.455812  3703 net.cpp:156] Memory required for data: 137698688
I0427 16:44:32.455816  3703 layer_factory.hpp:77] Creating layer conv2
I0427 16:44:32.455826  3703 net.cpp:91] Creating Layer conv2
I0427 16:44:32.455829  3703 net.cpp:425] conv2 <- pool1
I0427 16:44:32.455835  3703 net.cpp:399] conv2 -> conv2
I0427 16:44:32.457353  3703 net.cpp:141] Setting up conv2
I0427 16:44:32.457370  3703 net.cpp:148] Top shape: 16 64 125 23 (2944000)
I0427 16:44:32.457373  3703 net.cpp:156] Memory required for data: 149474688
I0427 16:44:32.457386  3703 layer_factory.hpp:77] Creating layer pool2
I0427 16:44:32.457396  3703 net.cpp:91] Creating Layer pool2
I0427 16:44:32.457399  3703 net.cpp:425] pool2 <- conv2
I0427 16:44:32.457406  3703 net.cpp:399] pool2 -> pool2
I0427 16:44:32.457447  3703 net.cpp:141] Setting up pool2
I0427 16:44:32.457454  3703 net.cpp:148] Top shape: 16 64 63 12 (774144)
I0427 16:44:32.457458  3703 net.cpp:156] Memory required for data: 152571264
I0427 16:44:32.457461  3703 layer_factory.hpp:77] Creating layer relu2
I0427 16:44:32.457468  3703 net.cpp:91] Creating Layer relu2
I0427 16:44:32.457470  3703 net.cpp:425] relu2 <- pool2
I0427 16:44:32.457476  3703 net.cpp:386] relu2 -> pool2 (in-place)
I0427 16:44:32.457482  3703 net.cpp:141] Setting up relu2
I0427 16:44:32.457487  3703 net.cpp:148] Top shape: 16 64 63 12 (774144)
I0427 16:44:32.457491  3703 net.cpp:156] Memory required for data: 155667840
I0427 16:44:32.457494  3703 layer_factory.hpp:77] Creating layer ip2
I0427 16:44:32.457509  3703 net.cpp:91] Creating Layer ip2
I0427 16:44:32.457512  3703 net.cpp:425] ip2 <- pool2
I0427 16:44:32.457518  3703 net.cpp:399] ip2 -> ip2
I0427 16:44:32.517410  3703 net.cpp:141] Setting up ip2
I0427 16:44:32.517446  3703 net.cpp:148] Top shape: 16 128 (2048)
I0427 16:44:32.517451  3703 net.cpp:156] Memory required for data: 155676032
I0427 16:44:32.517469  3703 layer_factory.hpp:77] Creating layer relu2
I0427 16:44:32.517482  3703 net.cpp:91] Creating Layer relu2
I0427 16:44:32.517488  3703 net.cpp:425] relu2 <- ip2
I0427 16:44:32.517496  3703 net.cpp:386] relu2 -> ip2 (in-place)
I0427 16:44:32.517511  3703 net.cpp:141] Setting up relu2
I0427 16:44:32.517516  3703 net.cpp:148] Top shape: 16 128 (2048)
I0427 16:44:32.517519  3703 net.cpp:156] Memory required for data: 155684224
I0427 16:44:32.517523  3703 layer_factory.hpp:77] Creating layer dropip2
I0427 16:44:32.517539  3703 net.cpp:91] Creating Layer dropip2
I0427 16:44:32.517542  3703 net.cpp:425] dropip2 <- ip2
I0427 16:44:32.517547  3703 net.cpp:386] dropip2 -> ip2 (in-place)
I0427 16:44:32.517577  3703 net.cpp:141] Setting up dropip2
I0427 16:44:32.517585  3703 net.cpp:148] Top shape: 16 128 (2048)
I0427 16:44:32.517588  3703 net.cpp:156] Memory required for data: 155692416
I0427 16:44:32.517591  3703 layer_factory.hpp:77] Creating layer score
I0427 16:44:32.517601  3703 net.cpp:91] Creating Layer score
I0427 16:44:32.517606  3703 net.cpp:425] score <- ip2
I0427 16:44:32.517611  3703 net.cpp:399] score -> score
I0427 16:44:32.517709  3703 net.cpp:141] Setting up score
I0427 16:44:32.517716  3703 net.cpp:148] Top shape: 16 2 (32)
I0427 16:44:32.517720  3703 net.cpp:156] Memory required for data: 155692544
I0427 16:44:32.517726  3703 layer_factory.hpp:77] Creating layer loss
I0427 16:44:32.517738  3703 net.cpp:91] Creating Layer loss
I0427 16:44:32.517742  3703 net.cpp:425] loss <- score
I0427 16:44:32.517747  3703 net.cpp:425] loss <- label
I0427 16:44:32.517752  3703 net.cpp:399] loss -> loss
I0427 16:44:32.517798  3703 net.cpp:141] Setting up loss
…
