…
I0428 14:26:05.735159 28092 net.cpp:49] Initializing net from parameters: 
I0428 14:26:05.735251 28092 layer_factory.hpp:77] Creating layer data
I0428 14:26:05.735275 28092 net.cpp:91] Creating Layer data
I0428 14:26:05.735286 28092 net.cpp:399] data -> amsFeatures
I0428 14:26:05.735311 28092 hdf5_data_layer.cpp:79] Loading list of HDF5 filenames from: /home/pierre/masterarbeit/twoears/avasm/hdf5/avasm_data_train.txt
I0428 14:26:05.735731 28092 hdf5_data_layer.cpp:93] Number of HDF5 files: 1
I0428 14:26:05.736718 28092 hdf5.cpp:32] Datatype class: H5T_FLOAT
I0428 14:26:05.796751 28092 net.cpp:141] Setting up data
I0428 14:26:05.796798 28092 net.cpp:148] Top shape: 16 1 513 105 (861840)
I0428 14:26:05.796808 28092 net.cpp:156] Memory required for data: 3447360
I0428 14:26:05.796821 28092 layer_factory.hpp:77] Creating layer data
I0428 14:26:05.796843 28092 net.cpp:91] Creating Layer data
I0428 14:26:05.796852 28092 net.cpp:399] data -> label
I0428 14:26:05.796869 28092 hdf5_data_layer.cpp:79] Loading list of HDF5 filenames from: /home/pierre/masterarbeit/twoears/avasm/hdf5/avasm_data_train.txt
I0428 14:26:05.797107 28092 hdf5_data_layer.cpp:93] Number of HDF5 files: 1
I0428 14:26:05.798666 28092 net.cpp:141] Setting up data
I0428 14:26:05.798684 28092 net.cpp:148] Top shape: 16 2 (32)
I0428 14:26:05.798691 28092 net.cpp:156] Memory required for data: 3447488
I0428 14:26:05.798698 28092 layer_factory.hpp:77] Creating layer conv1
I0428 14:26:05.798723 28092 net.cpp:91] Creating Layer conv1
I0428 14:26:05.798732 28092 net.cpp:425] conv1 <- amsFeatures
I0428 14:26:05.798743 28092 net.cpp:399] conv1 -> conv1
I0428 14:26:05.800608 28092 net.cpp:141] Setting up conv1
I0428 14:26:05.800628 28092 net.cpp:148] Top shape: 16 75 253 49 (14876400)
I0428 14:26:05.800634 28092 net.cpp:156] Memory required for data: 62953088
I0428 14:26:05.800660 28092 layer_factory.hpp:77] Creating layer relu1
I0428 14:26:05.800671 28092 net.cpp:91] Creating Layer relu1
I0428 14:26:05.800679 28092 net.cpp:425] relu1 <- conv1
I0428 14:26:05.800688 28092 net.cpp:386] relu1 -> conv1 (in-place)
I0428 14:26:05.800701 28092 net.cpp:141] Setting up relu1
I0428 14:26:05.800711 28092 net.cpp:148] Top shape: 16 75 253 49 (14876400)
I0428 14:26:05.800716 28092 net.cpp:156] Memory required for data: 122458688
I0428 14:26:05.800724 28092 layer_factory.hpp:77] Creating layer pool1
I0428 14:26:05.800734 28092 net.cpp:91] Creating Layer pool1
I0428 14:26:05.800740 28092 net.cpp:425] pool1 <- conv1
I0428 14:26:05.800750 28092 net.cpp:399] pool1 -> pool1
I0428 14:26:05.800811 28092 net.cpp:141] Setting up pool1
I0428 14:26:05.800822 28092 net.cpp:148] Top shape: 16 75 127 25 (3810000)
I0428 14:26:05.800827 28092 net.cpp:156] Memory required for data: 137698688
I0428 14:26:05.800834 28092 layer_factory.hpp:77] Creating layer conv2
I0428 14:26:05.800848 28092 net.cpp:91] Creating Layer conv2
I0428 14:26:05.800854 28092 net.cpp:425] conv2 <- pool1
I0428 14:26:05.800865 28092 net.cpp:399] conv2 -> conv2
I0428 14:26:05.803190 28092 net.cpp:141] Setting up conv2
I0428 14:26:05.803212 28092 net.cpp:148] Top shape: 16 64 125 23 (2944000)
I0428 14:26:05.803220 28092 net.cpp:156] Memory required for data: 149474688
I0428 14:26:05.803234 28092 layer_factory.hpp:77] Creating layer pool2
I0428 14:26:05.803246 28092 net.cpp:91] Creating Layer pool2
I0428 14:26:05.803253 28092 net.cpp:425] pool2 <- conv2
I0428 14:26:05.803263 28092 net.cpp:399] pool2 -> pool2
I0428 14:26:05.803320 28092 net.cpp:141] Setting up pool2
I0428 14:26:05.803331 28092 net.cpp:148] Top shape: 16 64 63 12 (774144)
I0428 14:26:05.803338 28092 net.cpp:156] Memory required for data: 152571264
I0428 14:26:05.803344 28092 layer_factory.hpp:77] Creating layer relu2
I0428 14:26:05.803352 28092 net.cpp:91] Creating Layer relu2
I0428 14:26:05.803359 28092 net.cpp:425] relu2 <- pool2
I0428 14:26:05.803367 28092 net.cpp:386] relu2 -> pool2 (in-place)
I0428 14:26:05.803376 28092 net.cpp:141] Setting up relu2
I0428 14:26:05.803385 28092 net.cpp:148] Top shape: 16 64 63 12 (774144)
I0428 14:26:05.803390 28092 net.cpp:156] Memory required for data: 155667840
I0428 14:26:05.803396 28092 layer_factory.hpp:77] Creating layer ip2
I0428 14:26:05.803414 28092 net.cpp:91] Creating Layer ip2
I0428 14:26:05.803421 28092 net.cpp:425] ip2 <- pool2
I0428 14:26:05.803431 28092 net.cpp:399] ip2 -> ip2
I0428 14:26:05.894734 28092 net.cpp:141] Setting up ip2
I0428 14:26:05.894774 28092 net.cpp:148] Top shape: 16 128 (2048)
I0428 14:26:05.894781 28092 net.cpp:156] Memory required for data: 155676032
I0428 14:26:05.894804 28092 layer_factory.hpp:77] Creating layer relu2
I0428 14:26:05.894819 28092 net.cpp:91] Creating Layer relu2
I0428 14:26:05.894826 28092 net.cpp:425] relu2 <- ip2
I0428 14:26:05.894840 28092 net.cpp:386] relu2 -> ip2 (in-place)
I0428 14:26:05.894855 28092 net.cpp:141] Setting up relu2
I0428 14:26:05.894865 28092 net.cpp:148] Top shape: 16 128 (2048)
I0428 14:26:05.894870 28092 net.cpp:156] Memory required for data: 155684224
I0428 14:26:05.894876 28092 layer_factory.hpp:77] Creating layer dropip2
I0428 14:26:05.894894 28092 net.cpp:91] Creating Layer dropip2
I0428 14:26:05.894901 28092 net.cpp:425] dropip2 <- ip2
I0428 14:26:05.894909 28092 net.cpp:386] dropip2 -> ip2 (in-place)
I0428 14:26:05.894959 28092 net.cpp:141] Setting up dropip2
I0428 14:26:05.894971 28092 net.cpp:148] Top shape: 16 128 (2048)
I0428 14:26:05.894978 28092 net.cpp:156] Memory required for data: 155692416
I0428 14:26:05.894984 28092 layer_factory.hpp:77] Creating layer score
I0428 14:26:05.894997 28092 net.cpp:91] Creating Layer score
I0428 14:26:05.895004 28092 net.cpp:425] score <- ip2
I0428 14:26:05.895015 28092 net.cpp:399] score -> score
I0428 14:26:05.895161 28092 net.cpp:141] Setting up score
I0428 14:26:05.895174 28092 net.cpp:148] Top shape: 16 2 (32)
I0428 14:26:05.895179 28092 net.cpp:156] Memory required for data: 155692544
I0428 14:26:05.895190 28092 layer_factory.hpp:77] Creating layer loss
I0428 14:26:05.895206 28092 net.cpp:91] Creating Layer loss
I0428 14:26:05.895212 28092 net.cpp:425] loss <- score
I0428 14:26:05.895220 28092 net.cpp:425] loss <- label
I0428 14:26:05.895228 28092 net.cpp:399] loss -> loss
I0428 14:26:05.895297 28092 net.cpp:141] Setting up loss
…
