…
I0428 15:21:36.820447 28675 net.cpp:49] Initializing net from parameters: 
I0428 15:21:36.820525 28675 layer_factory.hpp:77] Creating layer data
I0428 15:21:36.820549 28675 net.cpp:91] Creating Layer data
I0428 15:21:36.820559 28675 net.cpp:399] data -> amsFeatures
I0428 15:21:36.820580 28675 hdf5_data_layer.cpp:79] Loading list of HDF5 filenames from: /home/pierre/masterarbeit/twoears/avasm/hdf5/avasm_data_train.txt
I0428 15:21:36.820758 28675 hdf5_data_layer.cpp:93] Number of HDF5 files: 1
I0428 15:21:36.821689 28675 hdf5.cpp:32] Datatype class: H5T_FLOAT
I0428 15:21:36.870124 28675 net.cpp:141] Setting up data
I0428 15:21:36.870167 28675 net.cpp:148] Top shape: 16 1 513 105 (861840)
I0428 15:21:36.870172 28675 net.cpp:156] Memory required for data: 3447360
I0428 15:21:36.870182 28675 layer_factory.hpp:77] Creating layer data
I0428 15:21:36.870203 28675 net.cpp:91] Creating Layer data
I0428 15:21:36.870209 28675 net.cpp:399] data -> label
I0428 15:21:36.870226 28675 hdf5_data_layer.cpp:79] Loading list of HDF5 filenames from: /home/pierre/masterarbeit/twoears/avasm/hdf5/avasm_data_train.txt
I0428 15:21:36.870461 28675 hdf5_data_layer.cpp:93] Number of HDF5 files: 1
I0428 15:21:36.871757 28675 net.cpp:141] Setting up data
I0428 15:21:36.871770 28675 net.cpp:148] Top shape: 16 2 (32)
I0428 15:21:36.871774 28675 net.cpp:156] Memory required for data: 3447488
I0428 15:21:36.871779 28675 layer_factory.hpp:77] Creating layer conv1
I0428 15:21:36.871803 28675 net.cpp:91] Creating Layer conv1
I0428 15:21:36.871806 28675 net.cpp:425] conv1 <- amsFeatures
I0428 15:21:36.871815 28675 net.cpp:399] conv1 -> conv1
I0428 15:21:36.873080 28675 net.cpp:141] Setting up conv1
I0428 15:21:36.873095 28675 net.cpp:148] Top shape: 16 75 253 49 (14876400)
I0428 15:21:36.873100 28675 net.cpp:156] Memory required for data: 62953088
I0428 15:21:36.873118 28675 layer_factory.hpp:77] Creating layer relu1
I0428 15:21:36.873127 28675 net.cpp:91] Creating Layer relu1
I0428 15:21:36.873132 28675 net.cpp:425] relu1 <- conv1
I0428 15:21:36.873138 28675 net.cpp:386] relu1 -> conv1 (in-place)
I0428 15:21:36.873148 28675 net.cpp:141] Setting up relu1
I0428 15:21:36.873154 28675 net.cpp:148] Top shape: 16 75 253 49 (14876400)
I0428 15:21:36.873157 28675 net.cpp:156] Memory required for data: 122458688
I0428 15:21:36.873162 28675 layer_factory.hpp:77] Creating layer pool1
I0428 15:21:36.873169 28675 net.cpp:91] Creating Layer pool1
I0428 15:21:36.873173 28675 net.cpp:425] pool1 <- conv1
I0428 15:21:36.873178 28675 net.cpp:399] pool1 -> pool1
I0428 15:21:36.873224 28675 net.cpp:141] Setting up pool1
I0428 15:21:36.873231 28675 net.cpp:148] Top shape: 16 75 127 25 (3810000)
I0428 15:21:36.873235 28675 net.cpp:156] Memory required for data: 137698688
I0428 15:21:36.873239 28675 layer_factory.hpp:77] Creating layer conv2
I0428 15:21:36.873248 28675 net.cpp:91] Creating Layer conv2
I0428 15:21:36.873252 28675 net.cpp:425] conv2 <- pool1
I0428 15:21:36.873260 28675 net.cpp:399] conv2 -> conv2
I0428 15:21:36.874907 28675 net.cpp:141] Setting up conv2
I0428 15:21:36.874922 28675 net.cpp:148] Top shape: 16 64 125 23 (2944000)
I0428 15:21:36.874925 28675 net.cpp:156] Memory required for data: 149474688
I0428 15:21:36.874950 28675 layer_factory.hpp:77] Creating layer pool2
I0428 15:21:36.874960 28675 net.cpp:91] Creating Layer pool2
I0428 15:21:36.874964 28675 net.cpp:425] pool2 <- conv2
I0428 15:21:36.874971 28675 net.cpp:399] pool2 -> pool2
I0428 15:21:36.875012 28675 net.cpp:141] Setting up pool2
I0428 15:21:36.875020 28675 net.cpp:148] Top shape: 16 64 63 12 (774144)
I0428 15:21:36.875023 28675 net.cpp:156] Memory required for data: 152571264
I0428 15:21:36.875027 28675 layer_factory.hpp:77] Creating layer relu2
I0428 15:21:36.875033 28675 net.cpp:91] Creating Layer relu2
I0428 15:21:36.875036 28675 net.cpp:425] relu2 <- pool2
I0428 15:21:36.875042 28675 net.cpp:386] relu2 -> pool2 (in-place)
I0428 15:21:36.875048 28675 net.cpp:141] Setting up relu2
I0428 15:21:36.875053 28675 net.cpp:148] Top shape: 16 64 63 12 (774144)
I0428 15:21:36.875056 28675 net.cpp:156] Memory required for data: 155667840
I0428 15:21:36.875061 28675 layer_factory.hpp:77] Creating layer ip2
I0428 15:21:36.875073 28675 net.cpp:91] Creating Layer ip2
I0428 15:21:36.875078 28675 net.cpp:425] ip2 <- pool2
I0428 15:21:36.875084 28675 net.cpp:399] ip2 -> ip2
I0428 15:21:36.942416 28675 net.cpp:141] Setting up ip2
I0428 15:21:36.942456 28675 net.cpp:148] Top shape: 16 128 (2048)
I0428 15:21:36.942459 28675 net.cpp:156] Memory required for data: 155676032
I0428 15:21:36.942481 28675 layer_factory.hpp:77] Creating layer relu2
I0428 15:21:36.942493 28675 net.cpp:91] Creating Layer relu2
I0428 15:21:36.942502 28675 net.cpp:425] relu2 <- ip2
I0428 15:21:36.942512 28675 net.cpp:386] relu2 -> ip2 (in-place)
I0428 15:21:36.942523 28675 net.cpp:141] Setting up relu2
I0428 15:21:36.942528 28675 net.cpp:148] Top shape: 16 128 (2048)
I0428 15:21:36.942533 28675 net.cpp:156] Memory required for data: 155684224
I0428 15:21:36.942535 28675 layer_factory.hpp:77] Creating layer dropip2
I0428 15:21:36.942554 28675 net.cpp:91] Creating Layer dropip2
I0428 15:21:36.942559 28675 net.cpp:425] dropip2 <- ip2
I0428 15:21:36.942564 28675 net.cpp:386] dropip2 -> ip2 (in-place)
I0428 15:21:36.942595 28675 net.cpp:141] Setting up dropip2
I0428 15:21:36.942603 28675 net.cpp:148] Top shape: 16 128 (2048)
I0428 15:21:36.942606 28675 net.cpp:156] Memory required for data: 155692416
I0428 15:21:36.942610 28675 layer_factory.hpp:77] Creating layer score
I0428 15:21:36.942621 28675 net.cpp:91] Creating Layer score
I0428 15:21:36.942625 28675 net.cpp:425] score <- ip2
I0428 15:21:36.942632 28675 net.cpp:399] score -> score
I0428 15:21:36.942737 28675 net.cpp:141] Setting up score
I0428 15:21:36.942745 28675 net.cpp:148] Top shape: 16 2 (32)
I0428 15:21:36.942749 28675 net.cpp:156] Memory required for data: 155692544
I0428 15:21:36.942756 28675 layer_factory.hpp:77] Creating layer score_score_0_split
I0428 15:21:36.942766 28675 net.cpp:91] Creating Layer score_score_0_split
I0428 15:21:36.942771 28675 net.cpp:425] score_score_0_split <- score
I0428 15:21:36.942777 28675 net.cpp:399] score_score_0_split -> score_score_0_split_0
I0428 15:21:36.942786 28675 net.cpp:399] score_score_0_split -> score_score_0_split_1
I0428 15:21:36.942827 28675 net.cpp:141] Setting up score_score_0_split
I0428 15:21:36.942836 28675 net.cpp:148] Top shape: 16 2 (32)
I0428 15:21:36.942841 28675 net.cpp:148] Top shape: 16 2 (32)
I0428 15:21:36.942843 28675 net.cpp:156] Memory required for data: 155692800
I0428 15:21:36.942847 28675 layer_factory.hpp:77] Creating layer loss
I0428 15:21:36.942858 28675 net.cpp:91] Creating Layer loss
I0428 15:21:36.942862 28675 net.cpp:425] loss <- score_score_0_split_0
I0428 15:21:36.942867 28675 net.cpp:425] loss <- label
I0428 15:21:36.942873 28675 net.cpp:399] loss -> loss
I0428 15:21:36.942919 28675 net.cpp:141] Setting up loss
I0428 15:21:36.942927 28675 net.cpp:148] Top shape: (1)
I0428 15:21:36.942950 28675 net.cpp:151]     with loss weight 1
I0428 15:21:36.942972 28675 net.cpp:156] Memory required for data: 155692804
I0428 15:21:36.942977 28675 layer_factory.hpp:77] Creating layer sigmoid
I0428 15:21:36.942984 28675 net.cpp:91] Creating Layer sigmoid
I0428 15:21:36.942988 28675 net.cpp:425] sigmoid <- score_score_0_split_1
I0428 15:21:36.942996 28675 net.cpp:399] sigmoid -> sigmoid
I0428 15:21:36.943022 28675 net.cpp:141] Setting up sigmoid
I0428 15:21:36.943030 28675 net.cpp:148] Top shape: 16 2 (32)
I0428 15:21:36.943034 28675 net.cpp:156] Memory required for data: 155692932
I0428 15:21:36.943037 28675 layer_factory.hpp:77] Creating layer silence
I0428 15:21:36.943047 28675 net.cpp:91] Creating Layer silence
I0428 15:21:36.943050 28675 net.cpp:425] silence <- sigmoid
I0428 15:21:36.943056 28675 net.cpp:141] Setting up silence
I0428 15:21:36.943060 28675 net.cpp:156] Memory required for data: 155692932
…
