…
I0428 14:24:33.380900 27136 net.cpp:49] Initializing net from parameters: 
I0428 14:24:33.380985 27136 layer_factory.hpp:77] Creating layer data
I0428 14:24:33.381006 27136 net.cpp:91] Creating Layer data
I0428 14:24:33.381017 27136 net.cpp:399] data -> amsFeatures
I0428 14:24:33.381045 27136 hdf5_data_layer.cpp:79] Loading list of HDF5 filenames from: /home/pierre/masterarbeit/twoears/avasm/hdf5/avasm_data_train.txt
I0428 14:24:33.381458 27136 hdf5_data_layer.cpp:93] Number of HDF5 files: 1
I0428 14:24:33.382407 27136 hdf5.cpp:32] Datatype class: H5T_FLOAT
I0428 14:24:33.441417 27136 net.cpp:141] Setting up data
I0428 14:24:33.441458 27136 net.cpp:148] Top shape: 16 1 513 105 (861840)
I0428 14:24:33.441462 27136 net.cpp:156] Memory required for data: 3447360
I0428 14:24:33.441475 27136 layer_factory.hpp:77] Creating layer data
I0428 14:24:33.441495 27136 net.cpp:91] Creating Layer data
I0428 14:24:33.441501 27136 net.cpp:399] data -> label
I0428 14:24:33.441519 27136 hdf5_data_layer.cpp:79] Loading list of HDF5 filenames from: /home/pierre/masterarbeit/twoears/avasm/hdf5/avasm_data_train.txt
I0428 14:24:33.441771 27136 hdf5_data_layer.cpp:93] Number of HDF5 files: 1
I0428 14:24:33.443104 27136 net.cpp:141] Setting up data
I0428 14:24:33.443120 27136 net.cpp:148] Top shape: 16 2 (32)
I0428 14:24:33.443123 27136 net.cpp:156] Memory required for data: 3447488
I0428 14:24:33.443130 27136 layer_factory.hpp:77] Creating layer conv1
I0428 14:24:33.443150 27136 net.cpp:91] Creating Layer conv1
I0428 14:24:33.443156 27136 net.cpp:425] conv1 <- amsFeatures
I0428 14:24:33.443163 27136 net.cpp:399] conv1 -> conv1
I0428 14:24:33.444360 27136 net.cpp:141] Setting up conv1
I0428 14:24:33.444375 27136 net.cpp:148] Top shape: 16 75 253 49 (14876400)
I0428 14:24:33.444377 27136 net.cpp:156] Memory required for data: 62953088
I0428 14:24:33.444398 27136 layer_factory.hpp:77] Creating layer relu1
I0428 14:24:33.444406 27136 net.cpp:91] Creating Layer relu1
I0428 14:24:33.444411 27136 net.cpp:425] relu1 <- conv1
I0428 14:24:33.444417 27136 net.cpp:386] relu1 -> conv1 (in-place)
I0428 14:24:33.444427 27136 net.cpp:141] Setting up relu1
I0428 14:24:33.444432 27136 net.cpp:148] Top shape: 16 75 253 49 (14876400)
I0428 14:24:33.444435 27136 net.cpp:156] Memory required for data: 122458688
I0428 14:24:33.444438 27136 layer_factory.hpp:77] Creating layer pool1
I0428 14:24:33.444447 27136 net.cpp:91] Creating Layer pool1
I0428 14:24:33.444450 27136 net.cpp:425] pool1 <- conv1
I0428 14:24:33.444455 27136 net.cpp:399] pool1 -> pool1
I0428 14:24:33.444499 27136 net.cpp:141] Setting up pool1
I0428 14:24:33.444507 27136 net.cpp:148] Top shape: 16 75 127 25 (3810000)
I0428 14:24:33.444510 27136 net.cpp:156] Memory required for data: 137698688
I0428 14:24:33.444514 27136 layer_factory.hpp:77] Creating layer conv2
I0428 14:24:33.444525 27136 net.cpp:91] Creating Layer conv2
I0428 14:24:33.444528 27136 net.cpp:425] conv2 <- pool1
I0428 14:24:33.444535 27136 net.cpp:399] conv2 -> conv2
I0428 14:24:33.446180 27136 net.cpp:141] Setting up conv2
I0428 14:24:33.446198 27136 net.cpp:148] Top shape: 16 64 125 23 (2944000)
I0428 14:24:33.446202 27136 net.cpp:156] Memory required for data: 149474688
I0428 14:24:33.446213 27136 layer_factory.hpp:77] Creating layer pool2
I0428 14:24:33.446223 27136 net.cpp:91] Creating Layer pool2
I0428 14:24:33.446228 27136 net.cpp:425] pool2 <- conv2
I0428 14:24:33.446233 27136 net.cpp:399] pool2 -> pool2
I0428 14:24:33.446277 27136 net.cpp:141] Setting up pool2
I0428 14:24:33.446285 27136 net.cpp:148] Top shape: 16 64 63 12 (774144)
I0428 14:24:33.446288 27136 net.cpp:156] Memory required for data: 152571264
I0428 14:24:33.446292 27136 layer_factory.hpp:77] Creating layer relu2
I0428 14:24:33.446298 27136 net.cpp:91] Creating Layer relu2
I0428 14:24:33.446302 27136 net.cpp:425] relu2 <- pool2
I0428 14:24:33.446308 27136 net.cpp:386] relu2 -> pool2 (in-place)
I0428 14:24:33.446316 27136 net.cpp:141] Setting up relu2
I0428 14:24:33.446321 27136 net.cpp:148] Top shape: 16 64 63 12 (774144)
I0428 14:24:33.446323 27136 net.cpp:156] Memory required for data: 155667840
I0428 14:24:33.446327 27136 layer_factory.hpp:77] Creating layer ip2
I0428 14:24:33.446342 27136 net.cpp:91] Creating Layer ip2
I0428 14:24:33.446346 27136 net.cpp:425] ip2 <- pool2
I0428 14:24:33.446352 27136 net.cpp:399] ip2 -> ip2
I0428 14:24:33.524574 27136 net.cpp:141] Setting up ip2
I0428 14:24:33.524610 27136 net.cpp:148] Top shape: 16 128 (2048)
I0428 14:24:33.524616 27136 net.cpp:156] Memory required for data: 155676032
I0428 14:24:33.524641 27136 layer_factory.hpp:77] Creating layer relu2
I0428 14:24:33.524657 27136 net.cpp:91] Creating Layer relu2
I0428 14:24:33.524664 27136 net.cpp:425] relu2 <- ip2
I0428 14:24:33.524675 27136 net.cpp:386] relu2 -> ip2 (in-place)
I0428 14:24:33.524693 27136 net.cpp:141] Setting up relu2
I0428 14:24:33.524701 27136 net.cpp:148] Top shape: 16 128 (2048)
I0428 14:24:33.524706 27136 net.cpp:156] Memory required for data: 155684224
I0428 14:24:33.524711 27136 layer_factory.hpp:77] Creating layer dropip2
I0428 14:24:33.524730 27136 net.cpp:91] Creating Layer dropip2
I0428 14:24:33.524736 27136 net.cpp:425] dropip2 <- ip2
I0428 14:24:33.524745 27136 net.cpp:386] dropip2 -> ip2 (in-place)
I0428 14:24:33.524786 27136 net.cpp:141] Setting up dropip2
I0428 14:24:33.524797 27136 net.cpp:148] Top shape: 16 128 (2048)
I0428 14:24:33.524802 27136 net.cpp:156] Memory required for data: 155692416
I0428 14:24:33.524808 27136 layer_factory.hpp:77] Creating layer score
I0428 14:24:33.524821 27136 net.cpp:91] Creating Layer score
I0428 14:24:33.524827 27136 net.cpp:425] score <- ip2
I0428 14:24:33.524837 27136 net.cpp:399] score -> score
I0428 14:24:33.524982 27136 net.cpp:141] Setting up score
I0428 14:24:33.524994 27136 net.cpp:148] Top shape: 16 2 (32)
I0428 14:24:33.524999 27136 net.cpp:156] Memory required for data: 155692544
I0428 14:24:33.525010 27136 layer_factory.hpp:77] Creating layer loss
I0428 14:24:33.525027 27136 net.cpp:91] Creating Layer loss
I0428 14:24:33.525032 27136 net.cpp:425] loss <- score
I0428 14:24:33.525040 27136 net.cpp:425] loss <- label
I0428 14:24:33.525048 27136 net.cpp:399] loss -> loss
I0428 14:24:33.525113 27136 net.cpp:141] Setting up loss
…
