…
I0427 16:41:24.027997  1749 net.cpp:313] The NetState phase (0) differed from the phase (1) specified by a rule in layer data
I0427 16:41:24.028224  1749 net.cpp:49] Initializing net from parameters: 
name: "SoundNet"
state {
  phase: TRAIN
}
layer {
  name: "data"
  type: "HDF5Data"
  top: "amsFeatures"
  include {
    phase: TRAIN
  }
  hdf5_data_param {
    source: "/home/pierre/masterarbeit/twoears/avasm/hdf5/avasm_data_train.txt"
    batch_size: 16
  }
}
layer {
  name: "data"
  type: "HDF5Data"
  top: "label"
  include {
    phase: TRAIN
  }
  hdf5_data_param {
    source: "/home/pierre/masterarbeit/twoears/avasm/hdf5/avasm_data_train.txt"
    batch_size: 16
  }
}
layer {
  name: "conv1"
  type: "Convolution"
  bottom: "amsFeatures"
  top: "conv1"
  param {
    lr_mult: 1
    decay_mult: 1
  }
  param {
    lr_mult: 2
    decay_mult: 0
  }
  convolution_param {
    num_output: 75
    stride: 2
    weight_filler {
      type: "xavier"
    }
    bias_filler {
      type: "constant"
    }
    kernel_h: 9
    kernel_w: 9
  }
}
layer {
  name: "relu1"
  type: "ReLU"
  bottom: "conv1"
  top: "conv1"
}
layer {
  name: "pool1"
  type: "Pooling"
  bottom: "conv1"
  top: "pool1"
  pooling_param {
    pool: MAX
    kernel_size: 2
    stride: 2
  }
}
layer {
  name: "conv2"
  type: "Convolution"
  bottom: "pool1"
  top: "conv2"
  param {
    lr_mult: 1
    decay_mult: 1
  }
  param {
    lr_mult: 2
    decay_mult: 0
  }
  convolution_param {
    num_output: 64
    stride: 1
    weight_filler {
      type: "xavier"
    }
    bias_filler {
      type: "constant"
    }
    kernel_h: 3
    kernel_w: 3
  }
}
layer {
  name: "pool2"
  type: "Pooling"
  bottom: "conv2"
  top: "pool2"
  pooling_param {
    pool: MAX
    kernel_size: 2
    stride: 2
  }
}
layer {
  name: "relu2"
  type: "ReLU"
  bottom: "pool2"
  top: "pool2"
}
layer {
  name: "ip2"
  type: "InnerProduct"
  bottom: "pool2"
  top: "ip2"
  param {
    lr_mult: 1
  }
  param {
    lr_mult: 2
  }
  inner_product_param {
    num_output: 128
    weight_filler {
      type: "xavier"
    }
    bias_filler {
      type: "constant"
    }
  }
}
layer {
  name: "relu2"
  type: "ReLU"
  bottom: "ip2"
  top: "ip2"
}
layer {
  name: "dropip2"
  type: "Dropout"
  bottom: "ip2"
  top: "ip2"
  dropout_param {
    dropout_ratio: 0.5
  }
}
layer {
  name: "score"
  type: "InnerProduct"
  bottom: "ip2"
  top: "score"
  param {
    lr_mult: 1
  }
  param {
    lr_mult: 2
  }
  inner_product_param {
    num_output: 2
    weight_filler {
      type: "xavier"
    }
    bias_filler {
      type: "constant"
    }
  }
}
layer {
  name: "loss"
  type: "SigmoidCrossEntropyLoss"
  bottom: "score"
  bottom: "label"
  top: "loss"
}
I0427 16:41:24.028308  1749 layer_factory.hpp:77] Creating layer data
I0427 16:41:24.028329  1749 net.cpp:91] Creating Layer data
I0427 16:41:24.028343  1749 net.cpp:399] data -> amsFeatures
I0427 16:41:24.028374  1749 hdf5_data_layer.cpp:79] Loading list of HDF5 filenames from: /home/pierre/masterarbeit/twoears/avasm/hdf5/avasm_data_train.txt
I0427 16:41:24.028832  1749 hdf5_data_layer.cpp:93] Number of HDF5 files: 1
I0427 16:41:24.029888  1749 hdf5.cpp:32] Datatype class: H5T_FLOAT
I0427 16:41:24.089884  1749 net.cpp:141] Setting up data
I0427 16:41:24.089928  1749 net.cpp:148] Top shape: 16 1 513 105 (861840)
I0427 16:41:24.089936  1749 net.cpp:156] Memory required for data: 3447360
I0427 16:41:24.089951  1749 layer_factory.hpp:77] Creating layer data
I0427 16:41:24.089973  1749 net.cpp:91] Creating Layer data
I0427 16:41:24.089982  1749 net.cpp:399] data -> label
I0427 16:41:24.090003  1749 hdf5_data_layer.cpp:79] Loading list of HDF5 filenames from: /home/pierre/masterarbeit/twoears/avasm/hdf5/avasm_data_train.txt
I0427 16:41:24.090297  1749 hdf5_data_layer.cpp:93] Number of HDF5 files: 1
I0427 16:41:24.092067  1749 net.cpp:141] Setting up data
I0427 16:41:24.092088  1749 net.cpp:148] Top shape: 16 2 (32)
I0427 16:41:24.092094  1749 net.cpp:156] Memory required for data: 3447488
I0427 16:41:24.092103  1749 layer_factory.hpp:77] Creating layer conv1
I0427 16:41:24.092130  1749 net.cpp:91] Creating Layer conv1
I0427 16:41:24.092138  1749 net.cpp:425] conv1 <- amsFeatures
I0427 16:41:24.092149  1749 net.cpp:399] conv1 -> conv1
I0427 16:41:24.093840  1749 net.cpp:141] Setting up conv1
I0427 16:41:24.093861  1749 net.cpp:148] Top shape: 16 75 253 49 (14876400)
I0427 16:41:24.093868  1749 net.cpp:156] Memory required for data: 62953088
I0427 16:41:24.093894  1749 layer_factory.hpp:77] Creating layer relu1
I0427 16:41:24.093906  1749 net.cpp:91] Creating Layer relu1
I0427 16:41:24.093914  1749 net.cpp:425] relu1 <- conv1
I0427 16:41:24.093922  1749 net.cpp:386] relu1 -> conv1 (in-place)
I0427 16:41:24.093936  1749 net.cpp:141] Setting up relu1
I0427 16:41:24.093945  1749 net.cpp:148] Top shape: 16 75 253 49 (14876400)
I0427 16:41:24.093951  1749 net.cpp:156] Memory required for data: 122458688
I0427 16:41:24.093956  1749 layer_factory.hpp:77] Creating layer pool1
I0427 16:41:24.093968  1749 net.cpp:91] Creating Layer pool1
I0427 16:41:24.093974  1749 net.cpp:425] pool1 <- conv1
I0427 16:41:24.093983  1749 net.cpp:399] pool1 -> pool1
I0427 16:41:24.094048  1749 net.cpp:141] Setting up pool1
I0427 16:41:24.094060  1749 net.cpp:148] Top shape: 16 75 127 25 (3810000)
I0427 16:41:24.094066  1749 net.cpp:156] Memory required for data: 137698688
I0427 16:41:24.094074  1749 layer_factory.hpp:77] Creating layer conv2
I0427 16:41:24.094087  1749 net.cpp:91] Creating Layer conv2
I0427 16:41:24.094094  1749 net.cpp:425] conv2 <- pool1
I0427 16:41:24.094105  1749 net.cpp:399] conv2 -> conv2
I0427 16:41:24.096456  1749 net.cpp:141] Setting up conv2
I0427 16:41:24.096485  1749 net.cpp:148] Top shape: 16 64 125 23 (2944000)
I0427 16:41:24.096493  1749 net.cpp:156] Memory required for data: 149474688
I0427 16:41:24.096511  1749 layer_factory.hpp:77] Creating layer pool2
I0427 16:41:24.096525  1749 net.cpp:91] Creating Layer pool2
I0427 16:41:24.096534  1749 net.cpp:425] pool2 <- conv2
I0427 16:41:24.096542  1749 net.cpp:399] pool2 -> pool2
I0427 16:41:24.096602  1749 net.cpp:141] Setting up pool2
I0427 16:41:24.096613  1749 net.cpp:148] Top shape: 16 64 63 12 (774144)
I0427 16:41:24.096619  1749 net.cpp:156] Memory required for data: 152571264
I0427 16:41:24.096626  1749 layer_factory.hpp:77] Creating layer relu2
I0427 16:41:24.096652  1749 net.cpp:91] Creating Layer relu2
I0427 16:41:24.096659  1749 net.cpp:425] relu2 <- pool2
I0427 16:41:24.096668  1749 net.cpp:386] relu2 -> pool2 (in-place)
I0427 16:41:24.096678  1749 net.cpp:141] Setting up relu2
I0427 16:41:24.096688  1749 net.cpp:148] Top shape: 16 64 63 12 (774144)
I0427 16:41:24.096693  1749 net.cpp:156] Memory required for data: 155667840
I0427 16:41:24.096698  1749 layer_factory.hpp:77] Creating layer ip2
I0427 16:41:24.096717  1749 net.cpp:91] Creating Layer ip2
I0427 16:41:24.096724  1749 net.cpp:425] ip2 <- pool2
I0427 16:41:24.096735  1749 net.cpp:399] ip2 -> ip2
I0427 16:41:24.187357  1749 net.cpp:141] Setting up ip2
I0427 16:41:24.187399  1749 net.cpp:148] Top shape: 16 128 (2048)
I0427 16:41:24.187408  1749 net.cpp:156] Memory required for data: 155676032
I0427 16:41:24.187436  1749 layer_factory.hpp:77] Creating layer relu2
I0427 16:41:24.187454  1749 net.cpp:91] Creating Layer relu2
I0427 16:41:24.187464  1749 net.cpp:425] relu2 <- ip2
I0427 16:41:24.187479  1749 net.cpp:386] relu2 -> ip2 (in-place)
I0427 16:41:24.187500  1749 net.cpp:141] Setting up relu2
I0427 16:41:24.187512  1749 net.cpp:148] Top shape: 16 128 (2048)
I0427 16:41:24.187520  1749 net.cpp:156] Memory required for data: 155684224
I0427 16:41:24.187525  1749 layer_factory.hpp:77] Creating layer dropip2
I0427 16:41:24.187547  1749 net.cpp:91] Creating Layer dropip2
I0427 16:41:24.187556  1749 net.cpp:425] dropip2 <- ip2
I0427 16:41:24.187566  1749 net.cpp:386] dropip2 -> ip2 (in-place)
I0427 16:41:24.187614  1749 net.cpp:141] Setting up dropip2
I0427 16:41:24.187628  1749 net.cpp:148] Top shape: 16 128 (2048)
I0427 16:41:24.187633  1749 net.cpp:156] Memory required for data: 155692416
I0427 16:41:24.187640  1749 layer_factory.hpp:77] Creating layer score
I0427 16:41:24.187654  1749 net.cpp:91] Creating Layer score
I0427 16:41:24.187660  1749 net.cpp:425] score <- ip2
I0427 16:41:24.187671  1749 net.cpp:399] score -> score
I0427 16:41:24.187824  1749 net.cpp:141] Setting up score
I0427 16:41:24.187837  1749 net.cpp:148] Top shape: 16 2 (32)
I0427 16:41:24.187844  1749 net.cpp:156] Memory required for data: 155692544
I0427 16:41:24.187855  1749 layer_factory.hpp:77] Creating layer loss
I0427 16:41:24.187872  1749 net.cpp:91] Creating Layer loss
I0427 16:41:24.187880  1749 net.cpp:425] loss <- score
I0427 16:41:24.187887  1749 net.cpp:425] loss <- label
I0427 16:41:24.187896  1749 net.cpp:399] loss -> loss
I0427 16:41:24.187966  1749 net.cpp:141] Setting up loss
…
