…
I0428 15:27:06.535171 32119 net.cpp:49] Initializing net from parameters: 
I0428 15:27:06.535290 32119 layer_factory.hpp:77] Creating layer data
I0428 15:27:06.535313 32119 net.cpp:91] Creating Layer data
I0428 15:27:06.535328 32119 net.cpp:399] data -> amsFeatures
I0428 15:27:06.535358 32119 hdf5_data_layer.cpp:79] Loading list of HDF5 filenames from: /home/pierre/masterarbeit/twoears/avasm/hdf5/avasm_data_train.txt
I0428 15:27:06.535852 32119 hdf5_data_layer.cpp:93] Number of HDF5 files: 1
I0428 15:27:06.536777 32119 hdf5.cpp:32] Datatype class: H5T_FLOAT
I0428 15:27:06.586580 32119 net.cpp:141] Setting up data
I0428 15:27:06.586626 32119 net.cpp:148] Top shape: 16 1 513 105 (861840)
I0428 15:27:06.586633 32119 net.cpp:156] Memory required for data: 3447360
I0428 15:27:06.586647 32119 layer_factory.hpp:77] Creating layer data
I0428 15:27:06.586671 32119 net.cpp:91] Creating Layer data
I0428 15:27:06.586683 32119 net.cpp:399] data -> label
I0428 15:27:06.586710 32119 hdf5_data_layer.cpp:79] Loading list of HDF5 filenames from: /home/pierre/masterarbeit/twoears/avasm/hdf5/avasm_data_train.txt
I0428 15:27:06.586951 32119 hdf5_data_layer.cpp:93] Number of HDF5 files: 1
I0428 15:27:06.588716 32119 net.cpp:141] Setting up data
I0428 15:27:06.588734 32119 net.cpp:148] Top shape: 16 2 (32)
I0428 15:27:06.588742 32119 net.cpp:156] Memory required for data: 3447488
I0428 15:27:06.588749 32119 layer_factory.hpp:77] Creating layer conv1
I0428 15:27:06.588778 32119 net.cpp:91] Creating Layer conv1
I0428 15:27:06.588785 32119 net.cpp:425] conv1 <- amsFeatures
I0428 15:27:06.588798 32119 net.cpp:399] conv1 -> conv1
I0428 15:27:06.590739 32119 net.cpp:141] Setting up conv1
I0428 15:27:06.590757 32119 net.cpp:148] Top shape: 16 75 253 49 (14876400)
I0428 15:27:06.590764 32119 net.cpp:156] Memory required for data: 62953088
I0428 15:27:06.590790 32119 layer_factory.hpp:77] Creating layer relu1
I0428 15:27:06.590803 32119 net.cpp:91] Creating Layer relu1
I0428 15:27:06.590811 32119 net.cpp:425] relu1 <- conv1
I0428 15:27:06.590819 32119 net.cpp:386] relu1 -> conv1 (in-place)
I0428 15:27:06.590832 32119 net.cpp:141] Setting up relu1
I0428 15:27:06.590840 32119 net.cpp:148] Top shape: 16 75 253 49 (14876400)
I0428 15:27:06.590847 32119 net.cpp:156] Memory required for data: 122458688
I0428 15:27:06.590852 32119 layer_factory.hpp:77] Creating layer pool1
I0428 15:27:06.590863 32119 net.cpp:91] Creating Layer pool1
I0428 15:27:06.590869 32119 net.cpp:425] pool1 <- conv1
I0428 15:27:06.590878 32119 net.cpp:399] pool1 -> pool1
I0428 15:27:06.590945 32119 net.cpp:141] Setting up pool1
I0428 15:27:06.590958 32119 net.cpp:148] Top shape: 16 75 127 25 (3810000)
I0428 15:27:06.590965 32119 net.cpp:156] Memory required for data: 137698688
I0428 15:27:06.590971 32119 layer_factory.hpp:77] Creating layer conv2
I0428 15:27:06.590984 32119 net.cpp:91] Creating Layer conv2
I0428 15:27:06.590991 32119 net.cpp:425] conv2 <- pool1
I0428 15:27:06.591001 32119 net.cpp:399] conv2 -> conv2
I0428 15:27:06.593258 32119 net.cpp:141] Setting up conv2
I0428 15:27:06.593278 32119 net.cpp:148] Top shape: 16 64 125 23 (2944000)
I0428 15:27:06.593286 32119 net.cpp:156] Memory required for data: 149474688
I0428 15:27:06.593302 32119 layer_factory.hpp:77] Creating layer pool2
I0428 15:27:06.593317 32119 net.cpp:91] Creating Layer pool2
I0428 15:27:06.593324 32119 net.cpp:425] pool2 <- conv2
I0428 15:27:06.593335 32119 net.cpp:399] pool2 -> pool2
I0428 15:27:06.593402 32119 net.cpp:141] Setting up pool2
I0428 15:27:06.593416 32119 net.cpp:148] Top shape: 16 64 63 12 (774144)
I0428 15:27:06.593422 32119 net.cpp:156] Memory required for data: 152571264
I0428 15:27:06.593428 32119 layer_factory.hpp:77] Creating layer relu2
I0428 15:27:06.593437 32119 net.cpp:91] Creating Layer relu2
I0428 15:27:06.593443 32119 net.cpp:425] relu2 <- pool2
I0428 15:27:06.593452 32119 net.cpp:386] relu2 -> pool2 (in-place)
I0428 15:27:06.593462 32119 net.cpp:141] Setting up relu2
I0428 15:27:06.593471 32119 net.cpp:148] Top shape: 16 64 63 12 (774144)
I0428 15:27:06.593477 32119 net.cpp:156] Memory required for data: 155667840
I0428 15:27:06.593482 32119 layer_factory.hpp:77] Creating layer ip2
I0428 15:27:06.593502 32119 net.cpp:91] Creating Layer ip2
I0428 15:27:06.593508 32119 net.cpp:425] ip2 <- pool2
I0428 15:27:06.593518 32119 net.cpp:399] ip2 -> ip2
I0428 15:27:06.661698 32119 net.cpp:141] Setting up ip2
I0428 15:27:06.661731 32119 net.cpp:148] Top shape: 16 128 (2048)
I0428 15:27:06.661734 32119 net.cpp:156] Memory required for data: 155676032
I0428 15:27:06.661754 32119 layer_factory.hpp:77] Creating layer relu2
I0428 15:27:06.661767 32119 net.cpp:91] Creating Layer relu2
I0428 15:27:06.661775 32119 net.cpp:425] relu2 <- ip2
I0428 15:27:06.661784 32119 net.cpp:386] relu2 -> ip2 (in-place)
I0428 15:27:06.661795 32119 net.cpp:141] Setting up relu2
I0428 15:27:06.661800 32119 net.cpp:148] Top shape: 16 128 (2048)
I0428 15:27:06.661804 32119 net.cpp:156] Memory required for data: 155684224
I0428 15:27:06.661808 32119 layer_factory.hpp:77] Creating layer dropip2
I0428 15:27:06.661824 32119 net.cpp:91] Creating Layer dropip2
I0428 15:27:06.661828 32119 net.cpp:425] dropip2 <- ip2
I0428 15:27:06.661834 32119 net.cpp:386] dropip2 -> ip2 (in-place)
I0428 15:27:06.661864 32119 net.cpp:141] Setting up dropip2
I0428 15:27:06.661871 32119 net.cpp:148] Top shape: 16 128 (2048)
I0428 15:27:06.661875 32119 net.cpp:156] Memory required for data: 155692416
I0428 15:27:06.661878 32119 layer_factory.hpp:77] Creating layer score
I0428 15:27:06.661888 32119 net.cpp:91] Creating Layer score
I0428 15:27:06.661891 32119 net.cpp:425] score <- ip2
I0428 15:27:06.661900 32119 net.cpp:399] score -> score
I0428 15:27:06.662003 32119 net.cpp:141] Setting up score
I0428 15:27:06.662011 32119 net.cpp:148] Top shape: 16 2 (32)
I0428 15:27:06.662015 32119 net.cpp:156] Memory required for data: 155692544
I0428 15:27:06.662022 32119 layer_factory.hpp:77] Creating layer score_score_0_split
I0428 15:27:06.662032 32119 net.cpp:91] Creating Layer score_score_0_split
I0428 15:27:06.662036 32119 net.cpp:425] score_score_0_split <- score
I0428 15:27:06.662042 32119 net.cpp:399] score_score_0_split -> score_score_0_split_0
I0428 15:27:06.662050 32119 net.cpp:399] score_score_0_split -> score_score_0_split_1
I0428 15:27:06.662091 32119 net.cpp:141] Setting up score_score_0_split
I0428 15:27:06.662098 32119 net.cpp:148] Top shape: 16 2 (32)
I0428 15:27:06.662103 32119 net.cpp:148] Top shape: 16 2 (32)
I0428 15:27:06.662106 32119 net.cpp:156] Memory required for data: 155692800
I0428 15:27:06.662111 32119 layer_factory.hpp:77] Creating layer loss
I0428 15:27:06.662122 32119 net.cpp:91] Creating Layer loss
I0428 15:27:06.662125 32119 net.cpp:425] loss <- score_score_0_split_0
I0428 15:27:06.662130 32119 net.cpp:425] loss <- label
I0428 15:27:06.662137 32119 net.cpp:399] loss -> loss
I0428 15:27:06.662181 32119 net.cpp:141] Setting up loss
I0428 15:27:06.662189 32119 net.cpp:148] Top shape: (1)
I0428 15:27:06.662194 32119 net.cpp:151]     with loss weight 1
I0428 15:27:06.662212 32119 net.cpp:156] Memory required for data: 155692804
I0428 15:27:06.662217 32119 layer_factory.hpp:77] Creating layer sigmoid
I0428 15:27:06.662225 32119 net.cpp:91] Creating Layer sigmoid
I0428 15:27:06.662228 32119 net.cpp:425] sigmoid <- score_score_0_split_1
I0428 15:27:06.662235 32119 net.cpp:399] sigmoid -> sigmoid
I0428 15:27:06.662259 32119 net.cpp:141] Setting up sigmoid
I0428 15:27:06.662266 32119 net.cpp:148] Top shape: 16 2 (32)
I0428 15:27:06.662271 32119 net.cpp:156] Memory required for data: 155692932
I0428 15:27:06.662273 32119 layer_factory.hpp:77] Creating layer silence
I0428 15:27:06.662281 32119 net.cpp:91] Creating Layer silence
I0428 15:27:06.662286 32119 net.cpp:425] silence <- sigmoid
I0428 15:27:06.662292 32119 net.cpp:141] Setting up silence
I0428 15:27:06.662295 32119 net.cpp:156] Memory required for data: 155692932
…
