…
I0428 15:22:56.933140 29541 net.cpp:49] Initializing net from parameters: 
I0428 15:22:56.933214 29541 layer_factory.hpp:77] Creating layer data
I0428 15:22:56.933235 29541 net.cpp:91] Creating Layer data
I0428 15:22:56.933243 29541 net.cpp:399] data -> amsFeatures
I0428 15:22:56.933264 29541 hdf5_data_layer.cpp:79] Loading list of HDF5 filenames from: /home/pierre/masterarbeit/twoears/avasm/hdf5/avasm_data_train.txt
I0428 15:22:56.933825 29541 hdf5_data_layer.cpp:93] Number of HDF5 files: 1
I0428 15:22:56.934896 29541 hdf5.cpp:32] Datatype class: H5T_FLOAT
I0428 15:22:56.983850 29541 net.cpp:141] Setting up data
I0428 15:22:56.983896 29541 net.cpp:148] Top shape: 16 1 513 105 (861840)
I0428 15:22:56.983903 29541 net.cpp:156] Memory required for data: 3447360
I0428 15:22:56.983916 29541 layer_factory.hpp:77] Creating layer data
I0428 15:22:56.983939 29541 net.cpp:91] Creating Layer data
I0428 15:22:56.983948 29541 net.cpp:399] data -> label
I0428 15:22:56.983969 29541 hdf5_data_layer.cpp:79] Loading list of HDF5 filenames from: /home/pierre/masterarbeit/twoears/avasm/hdf5/avasm_data_train.txt
I0428 15:22:56.984235 29541 hdf5_data_layer.cpp:93] Number of HDF5 files: 1
I0428 15:22:56.985996 29541 net.cpp:141] Setting up data
I0428 15:22:56.986016 29541 net.cpp:148] Top shape: 16 2 (32)
I0428 15:22:56.986023 29541 net.cpp:156] Memory required for data: 3447488
I0428 15:22:56.986030 29541 layer_factory.hpp:77] Creating layer conv1
I0428 15:22:56.986058 29541 net.cpp:91] Creating Layer conv1
I0428 15:22:56.986066 29541 net.cpp:425] conv1 <- amsFeatures
I0428 15:22:56.986078 29541 net.cpp:399] conv1 -> conv1
I0428 15:22:56.987936 29541 net.cpp:141] Setting up conv1
I0428 15:22:56.987956 29541 net.cpp:148] Top shape: 16 75 253 49 (14876400)
I0428 15:22:56.987962 29541 net.cpp:156] Memory required for data: 62953088
I0428 15:22:56.987987 29541 layer_factory.hpp:77] Creating layer relu1
I0428 15:22:56.987999 29541 net.cpp:91] Creating Layer relu1
I0428 15:22:56.988006 29541 net.cpp:425] relu1 <- conv1
I0428 15:22:56.988016 29541 net.cpp:386] relu1 -> conv1 (in-place)
I0428 15:22:56.988031 29541 net.cpp:141] Setting up relu1
I0428 15:22:56.988044 29541 net.cpp:148] Top shape: 16 75 253 49 (14876400)
I0428 15:22:56.988049 29541 net.cpp:156] Memory required for data: 122458688
I0428 15:22:56.988054 29541 layer_factory.hpp:77] Creating layer pool1
I0428 15:22:56.988066 29541 net.cpp:91] Creating Layer pool1
I0428 15:22:56.988072 29541 net.cpp:425] pool1 <- conv1
I0428 15:22:56.988081 29541 net.cpp:399] pool1 -> pool1
I0428 15:22:56.988142 29541 net.cpp:141] Setting up pool1
I0428 15:22:56.988152 29541 net.cpp:148] Top shape: 16 75 127 25 (3810000)
I0428 15:22:56.988158 29541 net.cpp:156] Memory required for data: 137698688
I0428 15:22:56.988164 29541 layer_factory.hpp:77] Creating layer conv2
I0428 15:22:56.988178 29541 net.cpp:91] Creating Layer conv2
I0428 15:22:56.988184 29541 net.cpp:425] conv2 <- pool1
I0428 15:22:56.988194 29541 net.cpp:399] conv2 -> conv2
I0428 15:22:56.990530 29541 net.cpp:141] Setting up conv2
I0428 15:22:56.990551 29541 net.cpp:148] Top shape: 16 64 125 23 (2944000)
I0428 15:22:56.990557 29541 net.cpp:156] Memory required for data: 149474688
I0428 15:22:56.990576 29541 layer_factory.hpp:77] Creating layer pool2
I0428 15:22:56.990592 29541 net.cpp:91] Creating Layer pool2
I0428 15:22:56.990599 29541 net.cpp:425] pool2 <- conv2
I0428 15:22:56.990612 29541 net.cpp:399] pool2 -> pool2
I0428 15:22:56.990679 29541 net.cpp:141] Setting up pool2
I0428 15:22:56.990694 29541 net.cpp:148] Top shape: 16 64 63 12 (774144)
I0428 15:22:56.990700 29541 net.cpp:156] Memory required for data: 152571264
I0428 15:22:56.990708 29541 layer_factory.hpp:77] Creating layer relu2
I0428 15:22:56.990720 29541 net.cpp:91] Creating Layer relu2
I0428 15:22:56.990727 29541 net.cpp:425] relu2 <- pool2
I0428 15:22:56.990736 29541 net.cpp:386] relu2 -> pool2 (in-place)
I0428 15:22:56.990747 29541 net.cpp:141] Setting up relu2
I0428 15:22:56.990756 29541 net.cpp:148] Top shape: 16 64 63 12 (774144)
I0428 15:22:56.990762 29541 net.cpp:156] Memory required for data: 155667840
I0428 15:22:56.990768 29541 layer_factory.hpp:77] Creating layer ip2
I0428 15:22:56.990789 29541 net.cpp:91] Creating Layer ip2
I0428 15:22:56.990797 29541 net.cpp:425] ip2 <- pool2
I0428 15:22:56.990808 29541 net.cpp:399] ip2 -> ip2
I0428 15:22:57.069167 29541 net.cpp:141] Setting up ip2
I0428 15:22:57.069208 29541 net.cpp:148] Top shape: 16 128 (2048)
I0428 15:22:57.069216 29541 net.cpp:156] Memory required for data: 155676032
I0428 15:22:57.069242 29541 layer_factory.hpp:77] Creating layer relu2
I0428 15:22:57.069258 29541 net.cpp:91] Creating Layer relu2
I0428 15:22:57.069269 29541 net.cpp:425] relu2 <- ip2
I0428 15:22:57.069281 29541 net.cpp:386] relu2 -> ip2 (in-place)
I0428 15:22:57.069298 29541 net.cpp:141] Setting up relu2
I0428 15:22:57.069306 29541 net.cpp:148] Top shape: 16 128 (2048)
I0428 15:22:57.069313 29541 net.cpp:156] Memory required for data: 155684224
I0428 15:22:57.069319 29541 layer_factory.hpp:77] Creating layer dropip2
I0428 15:22:57.069339 29541 net.cpp:91] Creating Layer dropip2
I0428 15:22:57.069344 29541 net.cpp:425] dropip2 <- ip2
I0428 15:22:57.069353 29541 net.cpp:386] dropip2 -> ip2 (in-place)
I0428 15:22:57.069398 29541 net.cpp:141] Setting up dropip2
I0428 15:22:57.069409 29541 net.cpp:148] Top shape: 16 128 (2048)
I0428 15:22:57.069416 29541 net.cpp:156] Memory required for data: 155692416
I0428 15:22:57.069422 29541 layer_factory.hpp:77] Creating layer score
I0428 15:22:57.069437 29541 net.cpp:91] Creating Layer score
I0428 15:22:57.069443 29541 net.cpp:425] score <- ip2
I0428 15:22:57.069455 29541 net.cpp:399] score -> score
I0428 15:22:57.069612 29541 net.cpp:141] Setting up score
I0428 15:22:57.069624 29541 net.cpp:148] Top shape: 16 2 (32)
I0428 15:22:57.069630 29541 net.cpp:156] Memory required for data: 155692544
I0428 15:22:57.069641 29541 layer_factory.hpp:77] Creating layer score_score_0_split
I0428 15:22:57.069655 29541 net.cpp:91] Creating Layer score_score_0_split
I0428 15:22:57.069663 29541 net.cpp:425] score_score_0_split <- score
I0428 15:22:57.069672 29541 net.cpp:399] score_score_0_split -> score_score_0_split_0
I0428 15:22:57.069685 29541 net.cpp:399] score_score_0_split -> score_score_0_split_1
I0428 15:22:57.069744 29541 net.cpp:141] Setting up score_score_0_split
I0428 15:22:57.069756 29541 net.cpp:148] Top shape: 16 2 (32)
I0428 15:22:57.069764 29541 net.cpp:148] Top shape: 16 2 (32)
I0428 15:22:57.069769 29541 net.cpp:156] Memory required for data: 155692800
I0428 15:22:57.069777 29541 layer_factory.hpp:77] Creating layer loss
I0428 15:22:57.069792 29541 net.cpp:91] Creating Layer loss
I0428 15:22:57.069798 29541 net.cpp:425] loss <- score_score_0_split_0
I0428 15:22:57.069807 29541 net.cpp:425] loss <- label
I0428 15:22:57.069815 29541 net.cpp:399] loss -> loss
I0428 15:22:57.069885 29541 net.cpp:141] Setting up loss
I0428 15:22:57.069896 29541 net.cpp:148] Top shape: (1)
I0428 15:22:57.069902 29541 net.cpp:151]     with loss weight 1
I0428 15:22:57.069926 29541 net.cpp:156] Memory required for data: 155692804
I0428 15:22:57.069932 29541 layer_factory.hpp:77] Creating layer sigmoid
I0428 15:22:57.069942 29541 net.cpp:91] Creating Layer sigmoid
I0428 15:22:57.069948 29541 net.cpp:425] sigmoid <- score_score_0_split_1
I0428 15:22:57.069957 29541 net.cpp:399] sigmoid -> sigmoid
I0428 15:22:57.069993 29541 net.cpp:141] Setting up sigmoid
I0428 15:22:57.070003 29541 net.cpp:148] Top shape: 16 2 (32)
I0428 15:22:57.070008 29541 net.cpp:156] Memory required for data: 155692932
I0428 15:22:57.070013 29541 layer_factory.hpp:77] Creating layer silence
I0428 15:22:57.070025 29541 net.cpp:91] Creating Layer silence
I0428 15:22:57.070031 29541 net.cpp:425] silence <- sigmoid
I0428 15:22:57.070040 29541 net.cpp:141] Setting up silence
I0428 15:22:57.070045 29541 net.cpp:156] Memory required for data: 155692932
…
